FaceDetect_winDLL/facedetect_models/facedetect_facelandmark_whole_h320_w240_c3_int8.tflite (tflite, 525264 bytes, 52 tensors)

Conv2D/merged_input i1 [16, 3, 3, 3]
000000 1b 4d 9e 1e 5b 8e 01 50 9c 30 3e 96 35 4a 81 24
       27 77 -98 30 91 -114 1 80 -100 48 62 -106 53 74 -127 36
000010 4a 8e 24 28 b4 2a 31 9f 1f 3b a2 b7 8c 81 f8 e6
       74 -114 36 40 -76 42 49 -97 31 59 -94 -73 -116 -127 -8 -26
000020 e9 33 41 4e c2 a6 92 f3 f4 f4 2e 4f 5e 0c 00 ee
       -23 51 65 78 -62 -90 -110 -13 -12 -12 46 79 94 12 0 -18
000030 12 27 21 17 40 52 2d 25 1f c7 bb 96 0b f6 e9 56
       18 39 33 23 64 82 45 37 31 -57 -69 -106 11 -10 -23 86
000040 57 6c bf ab 81 03 0a 04 1f 2a 6d ec f6 d2 eb 19
       87 108 -65 -85 -127 3 10 4 31 42 109 -20 -10 -46 -21 25
000050 18 f6 d1 c0 bf 91 81 ca ae 96 29 24 65 5c 63 79
       24 -10 -47 -64 -65 -111 -127 -54 -82 -106 41 36 101 92 99 121
000060 2f 47 51 d3 ea 0e f5 07 11 07 1d 15 f5 23 f6 21
       47 71 81 -45 -22 14 -11 7 17 7 29 21 -11 35 -10 33
000070 28 cc 46 31 81 fe 12 0d 05 12 f0 30 21 9f de e0
       40 -52 70 49 -127 -2 18 13 5 18 -16 48 33 -97 -34 -32
000080 2c dd 08 62 fc 0d 2b b2 30 f7 ce 68 e7 cf 64 bd
       44 -35 8 98 -4 13 43 -78 48 -9 -50 104 -25 -49 100 -67
000090 af 30 18 ce 79 e1 bd 6d b0 a8 40 1a af 68 e2 bf
       -81 48 24 -50 121 -31 -67 109 -80 -88 64 26 -81 104 -30 -65
0000a0 7f b6 1f 05 c9 09 09 02 fb 04 1f 09 f4 f2 09 26
       127 -74 31 5 -55 9 9 2 -5 4 31 9 -12 -14 9 38
0000b0 51 1d 44 7f 16 e4 fc 0a f1 f7 38 21 1c 14 e7 0a
       81 29 68 127 22 -28 -4 10 -15 -9 56 33 28 20 -25 10
0000c0 ca 81 96 f5 9f e3 01 f0 01 1e 04 1f 26 fb 40 f3
       -54 -127 -106 -11 -97 -29 1 -16 1 30 4 31 38 -5 64 -13
0000d0 00 fa 35 46 68 1d 1a 32 64 2e ad 65 22 81 39 27
       0 -6 53 70 104 29 26 50 100 46 -83 101 34 -127 57 39
0000e0 dd 16 20 d3 35 4e be 25 3c df d4 2c f0 dc 2d cb
       -35 22 32 -45 53 78 -66 37 60 -33 -44 44 -16 -36 45 -53
0000f0 f3 1b d9 d5 29 0f eb 20 d5 dc 14 f5 1f 25 98 35
       -13 27 -39 -43 41 15 -21 32 -43 -36 20 -11 31 37 -104 53

Conv2D_1/merged_input i1 [32, 1, 1, 16]
000000 13 d3 13 c2 e9 f0 08 1f fd ff 81 0d 0b d0 07 de
       19 -45 19 -62 -23 -16 8 31 -3 -1 -127 13 11 -48 7 -34
000010 06 24 73 ea fc ff f3 f6 f3 08 fc fd ff f7 7f e9
       6 36 115 -22 -4 -1 -13 -10 -13 8 -4 -3 -1 -9 127 -23
000020 18 7f 00 c8 e4 0b f9 0b 03 df 15 df 0e f6 17 ec
       24 127 0 -56 -28 11 -7 11 3 -33 21 -33 14 -10 23 -20
000030 14 81 db d4 de f1 de 36 02 15 c4 95 e5 46 eb 86
       20 -127 -37 -44 -34 -15 -34 54 2 21 -60 -107 -27 70 -21 -122
000040 12 03 00 30 a0 94 19 f0 b5 e1 a8 f9 7f 06 0a 49
       18 3 0 48 -96 -108 25 -16 -75 -31 -88 -7 127 6 10 73
000050 33 7f fe c7 f4 00 13 b6 bd c7 08 f9 03 d8 09 dd
       51 127 -2 -57 -12 0 19 -74 -67 -57 8 -7 3 -40 9 -35
000060 81 f9 07 09 f4 08 05 f8 fe ff 00 ff 02 09 02 0b
       -127 -7 7 9 -12 8 5 -8 -2 -1 0 -1 2 9 2 11
000070 f8 11 09 f8 fc 18 0a 7f 0d db f0 b5 0c 20 8b 16
       -8 17 9 -8 -4 24 10 127 13 -37 -16 -75 12 32 -117 22
000080 aa 0b fc f9 01 20 d4 01 e5 7f 04 01 a3 07 f0 03
       -86 11 -4 -7 1 32 -44 1 -27 127 4 1 -93 7 -16 3
000090 a6 19 7f 02 17 e9 5b 2c 38 01 c7 fe 39 0e 48 0f
       -90 25 127 2 23 -23 91 44 56 1 -57 -2 57 14 72 15
0000a0 16 14 e5 78 15 e5 e5 0e 29 26 04 14 31 64 1b 7f
       22 20 -27 120 21 -27 -27 14 41 38 4 20 49 100 27 127
0000b0 e9 05 ee 7c 12 f9 1f fe 06 0e e9 08 03 7f ed 58
       -23 5 -18 124 18 -7 31 -2 6 14 -23 8 3 127 -19 88
0000c0 a1 a6 19 06 1b 0f 78 18 47 29 81 28 05 15 0a 0c
       -95 -90 25 6 27 15 120 24 71 41 -127 40 5 21 10 12
0000d0 07 4e 05 f9 f5 07 f3 27 f9 fb 0c 81 fb c0 39 01
       7 78 5 -7 -11 7 -13 39 -7 -5 12 -127 -5 -64 57 1
0000e0 10 7f f6 06 db 04 03 f8 0d f2 69 fd 2b 04 16 10
       16 127 -10 6 -37 4 3 -8 13 -14 105 -3 43 4 22 16
0000f0 0a 7f ee 01 dd f3 0a f9 01 e7 6a 07 25 f9 18 09
       10 127 -18 1 -35 -13 10 -7 1 -25 106 7 37 -7 24 9

Conv2D_10/merged_input i1 [128, 1, 1, 128]
000000 7d df 07 dd 27 0d 11 d1 00 03 ad fb d3 e4 09 c4
       125 -33 7 -35 39 13 17 -47 0 3 -83 -5 -45 -28 9 -60
000010 02 c5 fb 13 e4 f9 d7 f1 f3 da 15 db 1c e7 1b d8
       2 -59 -5 19 -28 -7 -41 -15 -13 -38 21 -37 28 -25 27 -40
000020 ec db f7 cd 2d cf f7 0f ee f7 e8 fa f3 db ee f4
       -20 -37 -9 -51 45 -49 -9 15 -18 -9 -24 -6 -13 -37 -18 -12
000030 ca fe 0f f7 03 9b cb e7 b2 c2 fa d7 01 f3 e5 03
       -54 -2 15 -9 3 -101 -53 -25 -78 -62 -6 -41 1 -13 -27 3
000040 e0 0a e0 08 c1 2b e9 21 f9 1c e4 9e f4 ac d3 0b
       -32 10 -32 8 -63 43 -23 33 -7 28 -28 -98 -12 -84 -45 11
000050 58 f6 33 a1 1a f2 06 cf d0 f6 28 db f6 e2 f4 07
       88 -10 51 -95 26 -14 6 -49 -48 -10 40 -37 -10 -30 -12 7
000060 81 f1 bc ed db 15 c1 f2 01 ca e7 e8 14 e8 fe 0b
       -127 -15 -68 -19 -37 21 -63 -14 1 -54 -25 -24 20 -24 -2 11
000070 e6 db e3 ce f6 30 e5 f7 02 f9 e4 b2 e8 ba c9 f9
       -26 -37 -29 -50 -10 48 -27 -9 2 -7 -28 -78 -24 -70 -55 -7
000080 71 37 2d 23 c7 e2 25 bc 5c 7a 20 ce a5 2a 18 b9
       113 55 45 35 -57 -30 37 -68 92 122 32 -50 -91 42 24 -71
000090 c0 cb 60 da 01 39 3b 90 a1 11 cd 0a f6 43 ce e5
       -64 -53 96 -38 1 57 59 -112 -95 17 -51 10 -10 67 -50 -27
0000a0 41 35 21 04 cd 15 29 44 c1 3c ef 15 15 4e 15 16
       65 53 33 4 -51 21 41 68 -63 60 -17 21 21 78 21 22
0000b0 26 ad 02 58 2a a8 c4 19 d3 e7 62 38 12 dc 2d de
       38 -83 2 88 42 -88 -60 25 -45 -25 98 56 18 -36 45 -34
0000c0 4c db f7 4e f0 c7 bb 00 c8 07 3c 2a 09 c3 51 b4
       76 -37 -9 78 -16 -57 -69 0 -56 7 60 42 9 -61 81 -76
0000d0 e0 1a 09 14 e2 68 d2 de e9 44 e7 e5 d3 2e fe 23
       -32 26 9 20 -30 104 -46 -34 -23 68 -25 -27 -45 46 -2 35
0000e0 bc 12 ed 2f fd d4 58 9e 27 98 52 19 10 d7 5c a5
       -68 18 -19 47 -3 -44 88 -98 39 -104 82 25 16 -41 92 -91
0000f0 db 4d de d6 01 2f 81 b2 a3 f5 e6 f2 fd c9 56 4e
       -37 77 -34 -42 1 47 -127 -78 -93 -11 -26 -14 -3 -55 86 78

Conv2D_11/merged_input i1 [256, 1, 1, 128]
000000 26 fa 11 88 fe fa 17 c2 fb fd 21 c1 fd 25 e9 fd
       38 -6 17 -120 -2 -6 23 -62 -5 -3 33 -63 -3 37 -23 -3
000010 17 f1 c9 4d d6 d1 1c 06 7f 15 df c5 6b 06 19 10
       23 -15 -55 77 -42 -47 28 6 127 21 -33 -59 107 6 25 16
000020 41 db 2c 0c 58 be ba da 30 32 22 fd 00 f6 e0 16
       65 -37 44 12 88 -66 -70 -38 48 50 34 -3 0 -10 -32 22
000030 06 18 35 f7 1c 16 23 ea e9 0b 21 e5 16 e8 10 d7
       6 24 53 -9 28 22 35 -22 -23 11 33 -27 22 -24 16 -41
000040 fe 3f 01 43 fe 19 48 32 20 05 d2 1f f2 00 df e8
       -2 63 1 67 -2 25 72 50 32 5 -46 31 -14 0 -33 -24
000050 fd 0f 39 62 17 dd f8 ff c4 18 03 09 ec 40 0f 1d
       -3 15 57 98 23 -35 -8 -1 -60 24 3 9 -20 64 15 29
000060 e2 18 d0 e4 29 17 46 b7 e4 f6 d1 06 03 1d c4 e0
       -30 24 -48 -28 41 23 70 -73 -28 -10 -47 6 3 29 -60 -32
000070 0d cb f1 00 f5 f7 01 dd 0c fb d6 02 0d 1a 2c 31
       13 -53 -15 0 -11 -9 1 -35 12 -5 -42 2 13 26 44 49
000080 39 11 eb e1 d4 09 01 e7 05 65 2c f6 ea e2 ce f3
       57 17 -21 -31 -44 9 1 -25 5 101 44 -10 -22 -30 -50 -13
000090 f5 08 de d3 e8 0c 13 c9 f5 52 12 01 e4 17 cf e6
       -11 8 -34 -45 -24 12 19 -55 -11 82 18 1 -28 23 -49 -26
0000a0 d5 1e e4 01 1e 13 ef c8 1a ba 17 fd bb 00 a3 30
       -43 30 -28 1 30 19 -17 -56 26 -70 23 -3 -69 0 -93 48
0000b0 2a 0d 26 eb 0f 00 0f e9 fa e0 ff 1e 0e ee 0c db
       42 13 38 -21 15 0 15 -23 -6 -32 -1 30 14 -18 12 -37
0000c0 ef 1f f0 3c 31 04 53 b5 07 da 08 20 eb 0e e2 e0
       -17 31 -16 60 49 4 83 -75 7 -38 8 32 -21 14 -30 -32
0000d0 7f ed 12 1f 0b e9 01 f3 fb 08 f4 05 28 e8 dd 25
       127 -19 18 31 11 -23 1 -13 -5 8 -12 5 40 -24 -35 37
0000e0 1e fc 65 01 e0 aa f3 ed 28 fd ca f3 fe f8 e9 fd
       30 -4 101 1 -32 -86 -13 -19 40 -3 -54 -13 -2 -8 -23 -3
0000f0 f5 0c 13 1e 31 d3 09 01 fb 09 06 bf 23 27 e1 0d
       -11 12 19 30 49 -45 9 1 -5 9 6 -65 35 39 -31 13

Conv2D_12/merged_input i1 [256, 1, 1, 256]
000000 e3 cb 81 c3 15 dc ff 0a 04 11 2c f6 0f 0a 14 f8
       -29 -53 -127 -61 21 -36 -1 10 4 17 44 -10 15 10 20 -8
000010 df f9 1a 0f f3 06 fe 02 e6 ec f2 f9 ef 0d e7 f9
       -33 -7 26 15 -13 6 -2 2 -26 -20 -14 -7 -17 13 -25 -7
000020 fd 03 cb 4c 0f 16 ef 2a 0c f7 f4 09 13 ed 01 29
       -3 3 -53 76 15 22 -17 42 12 -9 -12 9 19 -19 1 41
000030 05 09 0d 14 e8 f9 01 26 ce e5 08 ef 02 2e 0c f1
       5 9 13 20 -24 -7 1 38 -50 -27 8 -17 2 46 12 -15
000040 df f5 f2 f0 0f 08 f3 0b 12 03 fa d3 02 fb cf c0
       -33 -11 -14 -16 15 8 -13 11 18 3 -6 -45 2 -5 -49 -64
000050 01 0c 0e 02 f1 02 f3 26 c7 15 fc 0d 00 14 d9 24
       1 12 14 2 -15 2 -13 38 -57 21 -4 13 0 20 -39 36
000060 09 17 1d d6 13 f3 db eb e9 ff 07 01 12 e0 08 d5
       9 23 29 -42 19 -13 -37 -21 -23 -1 7 1 18 -32 8 -43
000070 ba 0b e0 f1 e5 ea 0d f1 21 02 d9 f4 f0 20 00 0e
       -70 11 -32 -15 -27 -22 13 -15 33 2 -39 -12 -16 32 0 14
000080 1c f7 0f 0e e4 f1 f5 0c df 09 d6 15 e6 dc e2 f4
       28 -9 15 14 -28 -15 -11 12 -33 9 -42 21 -26 -36 -30 -12
000090 e5 ef f7 d8 06 f0 e6 a6 0d c7 1e e3 fa 01 1a 08
       -27 -17 -9 -40 6 -16 -26 -90 13 -57 30 -29 -6 1 26 8
0000a0 08 e4 18 0d 06 dd ee ef fa f5 f6 12 f8 18 d2 23
       8 -28 24 13 6 -35 -18 -17 -6 -11 -10 18 -8 24 -46 35
0000b0 bf 15 ff 22 fc dc 20 06 eb e7 26 06 d5 eb 14 08
       -65 21 -1 34 -4 -36 32 6 -21 -25 38 6 -43 -21 20 8
0000c0 42 e4 05 01 f5 0f 0c fc ea 07 f0 1b fd ee 19 03
       66 -28 5 1 -11 15 12 -4 -22 7 -16 27 -3 -18 25 3
0000d0 0f fe 0b f8 e9 04 f1 ff 11 f2 2e 0f e6 0a 18 00
       15 -2 11 -8 -23 4 -15 -1 17 -14 46 15 -26 10 24 0
0000e0 05 2d d9 e1 ff d8 fc 12 f8 e7 fd cf 0f 0c fc f4
       5 45 -39 -31 -1 -40 -4 18 -8 -25 -3 -49 15 12 -4 -12
0000f0 10 d9 0a 04 e3 08 e4 0c 03 0b f6 43 27 be 10 03
       16 -39 10 4 -29 8 -28 12 3 11 -10 67 39 -66 16 3

Conv2D_13/ReadVariableOp i1 [64, 1, 1, 256]
000000 f7 e8 5c ee ff 07 ff 12 46 eb 32 23 10 cf 0d 06
       -9 -24 92 -18 -1 7 -1 18 70 -21 50 35 16 -49 13 6
000010 00 2b ce 39 2a dd 19 fe c3 ff 0e 09 ee 0f fa e2
       0 43 -50 57 42 -35 25 -2 -61 -1 14 9 -18 15 -6 -30
000020 0d 4b db 1b 13 7c 17 05 2b d1 c4 e7 f4 f5 c6 0e
       13 75 -37 27 19 124 23 5 43 -47 -60 -25 -12 -11 -58 14
000030 0a d0 ce f3 ee 40 26 d1 4f f3 0c 67 10 c5 52 40
       10 -48 -50 -13 -18 64 38 -47 79 -13 12 103 16 -59 82 64
000040 e2 ea cc 1c 23 c9 34 06 dc 11 ef f1 08 50 c7 3c
       -30 -22 -52 28 35 -55 52 6 -36 17 -17 -15 8 80 -57 60
000050 1b 22 09 e9 08 ed 15 f2 d0 21 6c d0 0a 22 f8 62
       27 34 9 -23 8 -19 21 -14 -48 33 108 -48 10 34 -8 98
000060 11 1e eb df 0a 0c 58 13 d5 15 53 c7 da 16 41 42
       17 30 -21 -33 10 12 88 19 -43 21 83 -57 -38 22 65 66
000070 18 02 00 f1 f6 de d5 db 14 09 23 ef 1b 3c 44 cf
       24 2 0 -15 -10 -34 -43 -37 20 9 35 -17 27 60 68 -49
000080 24 0b 20 3a fa 0f ee 66 47 3a c8 08 e2 e5 e3 d8
       36 11 32 58 -6 15 -18 102 71 58 -56 8 -30 -27 -29 -40
000090 40 d4 7f f6 b7 1e e9 b8 33 d7 db e3 46 d2 06 f2
       64 -44 127 -10 -73 30 -23 -72 51 -41 -37 -29 70 -46 6 -14
0000a0 20 09 d4 29 f7 2e e6 f6 31 42 f0 e7 fa 0f 2a 07
       32 9 -44 41 -9 46 -26 -10 49 66 -16 -25 -6 15 42 7
0000b0 ce 41 08 0d 28 3d 0a d2 02 0a fc ca e1 f0 e8 29
       -50 65 8 13 40 61 10 -46 2 10 -4 -54 -31 -16 -24 41
0000c0 03 23 d0 44 e4 bf 42 48 ee 0a f8 ed 38 fd f7 29
       3 35 -48 68 -28 -65 66 72 -18 10 -8 -19 56 -3 -9 41
0000d0 32 f5 47 17 12 f0 e8 48 fd f2 7c 07 09 4f c3 2d
       50 -11 71 23 18 -16 -24 72 -3 -14 124 7 9 79 -61 45
0000e0 e3 bf 3c 04 1e 6c 77 fc 16 fd df e2 ee 11 c5 03
       -29 -65 60 4 30 108 119 -4 22 -3 -33 -30 -18 17 -59 3
0000f0 ed 68 1a f3 fd f6 23 22 ed 28 0a 18 e2 e7 04 48
       -19 104 26 -13 -3 -10 35 34 -19 40 10 24 -30 -25 4 72

Conv2D_14/ReadVariableOp i1 [256, 1, 1, 64]
000000 11 f5 f7 04 ff ed ff 11 01 08 f0 04 10 2b fa f6
       17 -11 -9 4 -1 -19 -1 17 1 8 -16 4 16 43 -6 -10
000010 11 ed d6 cf 12 f1 0c 04 f4 ef 7f 03 1a fc df 04
       17 -19 -42 -49 18 -15 12 4 -12 -17 127 3 26 -4 -33 4
000020 fc 2a fd 10 f6 02 1b f4 30 fb f6 e7 0a 01 07 f6
       -4 42 -3 16 -10 2 27 -12 48 -5 -10 -25 10 1 7 -10
000030 0f f4 0d 04 cc e8 0d 2c fa fc ef fb 0a 07 0f e0
       15 -12 13 4 -52 -24 13 44 -6 -4 -17 -5 10 7 15 -32
000040 04 f8 18 f0 0d 02 07 09 21 f3 11 ff 24 7f 13 ff
       4 -8 24 -16 13 2 7 9 33 -13 17 -1 36 127 19 -1
000050 d4 01 d0 eb f2 0c 05 09 f2 07 43 0c 0b d4 29 0e
       -44 1 -48 -21 -14 12 5 9 -14 7 67 12 11 -44 41 14
000060 ed 24 f3 1a bf 05 04 00 13 0b fe 14 f8 00 07 03
       -19 36 -13 26 -65 5 4 0 19 11 -2 20 -8 0 7 3
000070 1d fc 23 10 b7 96 08 d5 aa 04 e9 ee fe 15 ff 4e
       29 -4 35 16 -73 -106 8 -43 -86 4 -23 -18 -2 21 -1 78
000080 b9 d3 b9 9b 68 ee 3b 3d 13 aa b3 cd 12 00 0e c0
       -71 -45 -71 -101 104 -18 59 61 19 -86 -77 -51 18 0 14 -64
000090 e2 a4 8a ad ec 5e 76 ed ac 9a 37 02 59 83 ed 81
       -30 -92 -118 -83 -20 94 118 -19 -84 -102 55 2 89 -125 -19 -127
0000a0 31 b9 82 ae 6f c8 7d c9 b2 3b 49 b6 b5 e2 02 c0
       49 -71 -126 -82 111 -56 125 -55 -78 59 73 -74 -75 -30 2 -64
0000b0 fc e5 79 ca 07 96 b9 99 be a4 14 e8 f9 44 43 99
       -4 -27 121 -54 7 -106 -71 -103 -66 -92 20 -24 -7 68 67 -103
0000c0 05 08 16 0b 01 f8 fb 04 28 f6 01 fe d5 28 fd 09
       5 8 22 11 1 -8 -5 4 40 -10 1 -2 -43 40 -3 9
0000d0 05 0b 22 3e 0c 02 00 08 f8 06 df 0c f2 fb e5 f2
       5 11 34 62 12 2 0 8 -8 6 -33 12 -14 -5 -27 -14
0000e0 dc f9 c4 00 2e 17 fe fd 28 00 0f fb f5 0a 0c f9
       -36 -7 -60 0 46 23 -2 -3 40 0 15 -5 -11 10 12 -7
0000f0 19 f2 19 0d 14 10 fb 81 d1 09 f7 ef f9 1b 0d 1d
       25 -14 25 13 20 16 -5 -127 -47 9 -9 -17 -7 27 13 29

Conv2D_15/ReadVariableOp i1 [6, 1, 1, 64]
000000 09 04 12 fc 37 04 51 02 f8 04 fc 27 06 48 7f 09
       9 4 18 -4 55 4 81 2 -8 4 -4 39 6 72 127 9
000010 ff 00 09 fd 01 01 ff 13 08 19 0f 14 33 0d fb 2a
       -1 0 9 -3 1 1 -1 19 8 25 15 20 51 13 -5 42
000020 f5 ff 26 01 05 fc 00 34 3d 4a 0e f2 2c e5 21 02
       -11 -1 38 1 5 -4 0 52 61 74 14 -14 44 -27 33 2
000030 a4 e3 08 25 2f 06 17 4d fb 1d 23 07 e2 2b fd 20
       -92 -29 8 37 47 6 23 77 -5 29 35 7 -30 43 -3 32
000040 fd fe e8 01 cb ff ae 02 06 fd 0c da f5 c1 81 f7
       -3 -2 -24 1 -53 -1 -82 2 6 -3 12 -38 -11 -63 -127 -9
000050 00 06 fa fa fc 02 ff e8 ff ee ec f1 d7 f6 06 d0
       0 6 -6 -6 -4 2 -1 -24 -1 -18 -20 -15 -41 -10 6 -48
000060 07 ff e0 f8 fe 00 00 c7 be b3 ed 0c d2 19 de 00
       7 -1 -32 -8 -2 0 0 -57 -66 -77 -19 12 -46 25 -34 0
000070 58 1b f6 dc d0 fb e7 ab ff dd db f6 22 d7 01 de
       88 27 -10 -36 -48 -5 -25 -85 -1 -35 -37 -10 34 -41 1 -34
000080 d6 1c 3f ef 2d 05 53 fc f8 fd d3 56 be 12 7f 20
       -42 28 63 -17 45 5 83 -4 -8 -3 -45 86 -66 18 127 32
000090 08 10 1b 02 13 ff d5 11 02 00 36 1e 2d 0a 06 36
       8 16 27 2 19 -1 -43 17 2 0 54 30 45 10 6 54
0000a0 f0 0b 3d 0b 0c d4 f8 5b 4a 44 f9 f7 2b db 5e 07
       -16 11 61 11 12 -44 -8 91 74 68 -7 -9 43 -37 94 7
0000b0 d1 d4 1a 18 d1 02 30 66 04 fb 27 f2 04 32 fe 44
       -47 -44 26 24 -47 2 48 102 4 -5 39 -14 4 50 -2 68
0000c0 2a e7 c7 14 d7 fb a0 06 03 02 30 a8 3c ee 81 ea
       42 -25 -57 20 -41 -5 -96 6 3 2 48 -88 60 -18 -127 -22
0000d0 f2 f5 dd fd eb 03 2a eb f4 f9 c7 eb d1 f1 f4 ce
       -14 -11 -35 -3 -21 3 42 -21 -12 -7 -57 -21 -47 -15 -12 -50
0000e0 0e f5 c2 f9 f2 26 10 9c ae b2 fe 07 de 26 9b f7
       14 -11 -62 -7 -14 38 16 -100 -82 -78 -2 7 -34 38 -101 -9
0000f0 2b 27 e7 ea 39 fa dc a5 01 ff da 12 fc ce fe c4
       43 39 -25 -22 57 -6 -36 -91 1 -1 -38 18 -4 -50 -2 -60

Conv2D_16/ReadVariableOp i1 [4, 1, 1, 128]
000000 2d ff 09 2a 00 09 c1 59 52 fd 00 03 1f dd fd 1c
       45 -1 9 42 0 9 -63 89 82 -3 0 3 31 -35 -3 28
000010 d1 eb 00 ff 07 02 2a 00 06 04 fc ef 0c 0b 06 04
       -47 -21 0 -1 7 2 42 0 6 4 -4 -17 12 11 6 4
000020 07 35 02 f9 1d 17 08 10 06 09 36 0b 03 1c 05 ff
       7 53 2 -7 29 23 8 16 6 9 54 11 3 28 5 -1
000030 ff 04 08 dd 06 0b fc 7f d6 1f f2 d7 fd eb 03 2e
       -1 4 8 -35 6 11 -4 127 -42 31 -14 -41 -3 -21 3 46
000040 1f 15 02 0d 0d 3a 06 09 06 2a 0e 01 c2 21 21 ea
       31 21 2 13 13 58 6 9 6 42 14 1 -62 33 33 -22
000050 03 0d b1 00 26 0f 0d 1d ff 15 e6 18 fd 26 53 f4
       3 13 -79 0 38 15 13 29 -1 21 -26 24 -3 38 83 -12
000060 11 e8 00 1e fe 09 02 0b fd 03 1d e8 02 0b ff ed
       17 -24 0 30 -2 9 2 11 -3 3 29 -24 2 11 -1 -19
000070 3f 1c 04 05 06 13 4c 05 03 0d 4c 02 f3 03 0f 0b
       63 28 4 5 6 19 76 5 3 13 76 2 -13 3 15 11
000080 da 00 f9 d3 03 f6 3f a8 b1 00 f9 fb e0 23 01 ea
       -38 0 -7 -45 3 -10 63 -88 -79 0 -7 -5 -32 35 1 -22
000090 28 0e 01 f9 fc 01 d5 f9 fd fe fe 0d f0 fb fc fc
       40 14 1 -7 -4 1 -43 -7 -3 -2 -2 13 -16 -5 -4 -4
0000a0 f8 cf fe 03 e0 e2 f7 f0 f9 f6 cc f4 ff e2 fe ff
       -8 -49 -2 3 -32 -30 -9 -16 -7 -10 -52 -12 -1 -30 -2 -1
0000b0 fd 00 f7 27 ff f3 01 81 24 e3 0c 25 01 16 fe d2
       -3 0 -9 39 -1 -13 1 -127 36 -29 12 37 1 22 -2 -46
0000c0 e1 f1 00 f8 f9 c6 fd fa fa db ef fc 3a e0 de 1a
       -31 -15 0 -8 -7 -58 -3 -6 -6 -37 -17 -4 58 -32 -34 26
0000d0 fd f5 4a 03 dd f6 f7 e4 03 ea 18 e3 02 d7 b4 0a
       -3 -11 74 3 -35 -10 -9 -28 3 -22 24 -29 2 -41 -76 10
0000e0 f1 16 00 e0 03 f1 ff f7 fd 02 e9 18 fe f2 fe 15
       -15 22 0 -32 3 -15 -1 -9 -3 2 -23 24 -2 -14 -2 21
0000f0 c3 e7 ff fd f7 f1 b2 f9 fc ed b5 fe 0c fc f2 f8
       -61 -25 -1 -3 -9 -15 -78 -7 -4 -19 -75 -2 12 -4 -14 -8

Conv2D_17/ReadVariableOp i1 [4, 1, 1, 256]
000000 08 25 03 ff 03 e6 ff ff 0b 20 bf 00 fc ff 0b 00
       8 37 3 -1 3 -26 -1 -1 11 32 -65 0 -4 -1 11 0
000010 ac 7f 39 f9 1b 00 5b 0a 1b ee c8 1c ed 0d 04 0c
       -84 127 57 -7 27 0 91 10 27 -18 -56 28 -19 13 4 12
000020 f9 eb 0d 01 00 16 02 08 02 1a 11 e0 fc 00 0b 15
       -7 -21 13 1 0 22 2 8 2 26 17 -32 -4 0 11 21
000030 cb 0c de 2e 00 57 ea 4f 05 fc 1d 10 03 34 11 68
       -53 12 -34 46 0 87 -22 79 5 -4 29 16 3 52 17 104
000040 fe 0f b6 2b 03 02 fe 00 14 06 a4 fd 01 ff 04 e4
       -2 15 -74 43 3 2 -2 0 20 6 -92 -3 1 -1 4 -28
000050 16 fe f5 12 08 ff 11 03 fa f7 77 46 4d 02 0f 18
       22 -2 -11 18 8 -1 17 3 -6 -9 119 70 77 2 15 24
000060 08 2b 9b 0b 04 08 b6 26 15 0b 1b 0c 07 02 0b 16
       8 43 -101 11 4 8 -74 38 21 11 27 12 7 2 11 22
000070 fb fd 21 04 27 ff ff 04 fe 00 f6 fd 00 5b ff 09
       -5 -3 33 4 39 -1 -1 4 -2 0 -10 -3 0 91 -1 9
000080 02 01 2f 3b c9 bf 1d 0a 12 06 0c ff fa 0c 11 2d
       2 1 47 59 -55 -65 29 10 18 6 12 -1 -6 12 17 45
000090 00 17 f9 04 01 fa 0a 13 30 22 5f f6 01 1a fa fc
       0 23 -7 4 1 -6 10 19 48 34 95 -10 1 26 -6 -4
0000a0 10 15 37 02 10 fe d4 08 08 4e 01 3a 08 10 ed 10
       16 21 55 2 16 -2 -44 8 8 78 1 58 8 16 -19 16
0000b0 0f fb 00 d3 fb 10 2b 76 1c fd 01 04 0b 01 08 1c
       15 -5 0 -45 -5 16 43 118 28 -3 1 4 11 1 8 28
0000c0 fd fd eb 0f 02 22 05 0a 65 18 ed 02 07 04 d9 16
       -3 -3 -21 15 2 34 5 10 101 24 -19 2 7 4 -39 22
0000d0 fe 09 ec 01 fe 20 01 0d 15 f9 31 49 2b 0f fc 00
       -2 9 -20 1 -2 32 1 13 21 -7 49 73 43 15 -4 0
0000e0 03 02 00 58 4e 02 1a f4 07 0b 00 fc 0d fa fe fc
       3 2 0 88 78 2 26 -12 7 11 0 -4 13 -6 -2 -4
0000f0 f0 0c 0f 01 16 02 f7 03 0b 67 fc 03 02 99 1d 10
       -16 12 15 1 22 2 -9 3 11 103 -4 3 2 -103 29 16

Conv2D_18/ReadVariableOp i1 [6, 3, 3, 256]
000000 fe fb 01 03 05 03 fb f7 06 ff fd 04 08 fa ef fd
       -2 -5 1 3 5 3 -5 -9 6 -1 -3 4 8 -6 -17 -3
000010 fe 05 0a 03 02 ff 08 01 0c 02 01 fc fc 07 fe fe
       -2 5 10 3 2 -1 8 1 12 2 1 -4 -4 7 -2 -2
000020 ff 04 fb 0b fd fa fe 02 fe ff 0a 03 11 03 f5 0c
       -1 4 -5 11 -3 -6 -2 2 -2 -1 10 3 17 3 -11 12
000030 f8 ff fd 03 ff 06 03 fa 07 07 02 02 fb 03 fe f3
       -8 -1 -3 3 -1 6 3 -6 7 7 2 2 -5 3 -2 -13
000040 00 08 fe 05 ff 00 0a fe fe fe 00 04 02 f9 f2 01
       0 8 -2 5 -1 0 10 -2 -2 -2 0 4 2 -7 -14 1
000050 fb f8 fb fc 04 fa fa 02 00 fc 00 fd 00 fd f9 05
       -5 -8 -5 -4 4 -6 -6 2 0 -4 0 -3 0 -3 -7 5
000060 02 05 0d 06 01 fd 03 01 f6 01 fb 00 08 02 05 fa
       2 5 13 6 1 -3 3 1 -10 1 -5 0 8 2 5 -6
000070 ff f8 fa fc fc 08 02 00 05 02 fc fa fa ff 02 03
       -1 -8 -6 -4 -4 8 2 0 5 2 -4 -6 -6 -1 2 3
000080 ff f9 04 08 07 fb fb fb f8 04 02 fc fd 00 08 03
       -1 -7 4 8 7 -5 -5 -5 -8 4 2 -4 -3 0 8 3
000090 fe 04 07 f7 02 05 fa fe 08 09 01 08 ff ff fc 07
       -2 4 7 -9 2 5 -6 -2 8 9 1 8 -1 -1 -4 7
0000a0 0d 05 f7 f6 f9 f9 ff ff ff 11 00 f8 08 05 f9 02
       13 5 -9 -10 -7 -7 -1 -1 -1 17 0 -8 8 5 -7 2
0000b0 09 fc 02 01 f8 f4 00 04 03 00 05 02 fb fd 01 03
       9 -4 2 1 -8 -12 0 4 3 0 5 2 -5 -3 1 3
0000c0 ff f8 ff f7 03 01 04 02 05 16 0d 03 f9 fa 01 ee
       -1 -8 -1 -9 3 1 4 2 5 22 13 3 -7 -6 1 -18
0000d0 07 01 fd ff fd 07 f7 fe fe 04 06 00 fe 07 fd 01
       7 1 -3 -1 -3 7 -9 -2 -2 4 6 0 -2 7 -3 1
0000e0 02 07 fe fd f3 08 fe 07 f6 09 07 ff fe 05 f6 fe
       2 7 -2 -3 -13 8 -2 7 -10 9 7 -1 -2 5 -10 -2
0000f0 07 04 ff 02 fc 00 03 04 f5 04 06 0d 09 ff 0b 04
       7 4 -1 2 -4 0 3 4 -11 4 6 13 9 -1 11 4

Conv2D_19/ReadVariableOp i1 [12, 1, 1, 64]
000000 03 fd 00 01 fe f9 fb fe ff 02 1a 0e f1 08 02 5b
       3 -3 0 1 -2 -7 -5 -2 -1 2 26 14 -15 8 2 91
000010 de fb 01 03 fe 0c 14 01 07 02 28 0b fd 06 08 02
       -34 -5 1 3 -2 12 20 1 7 2 40 11 -3 6 8 2
000020 ff 04 f0 05 03 f2 01 fc f8 02 64 fd fd d9 c3 81
       -1 4 -16 5 3 -14 1 -4 -8 2 100 -3 -3 -39 -61 -127
000030 f8 f5 ff fc f6 f8 fd fe fe 04 fd 05 1c f2 05 05
       -8 -11 -1 -4 -10 -8 -3 -2 -2 4 -3 5 28 -14 5 5
000040 02 fd fb 07 05 0b fd f5 04 04 f1 0b fe f1 fc ff
       2 -3 -5 7 5 11 -3 -11 4 4 -15 11 -2 -15 -4 -1
000050 fc 05 02 01 03 02 0d 02 05 00 fe 0d fb ef f6 fe
       -4 5 2 1 3 2 13 2 5 0 -2 13 -5 -17 -10 -2
000060 02 fc 01 fe 63 00 04 39 fa fe fe fb fb 31 06 fc
       2 -4 1 -2 99 0 4 57 -6 -2 -2 -5 -5 49 6 -4
000070 b9 81 fb 02 01 18 ff f7 00 03 fe 1c f5 02 04 fd
       -71 -127 -5 2 1 24 -1 -9 0 3 -2 28 -11 2 4 -3
000080 04 05 00 ff b1 f3 f6 fb 1a 00 32 08 ef 5f fa 0e
       4 5 0 -1 -79 -13 -10 -5 26 0 50 8 -17 95 -6 14
000090 e7 ff f8 07 f7 ec cb 0f 07 fa ee 0c 03 f6 7f c0
       -25 -1 -8 7 -9 -20 -53 15 7 -6 -18 12 3 -10 127 -64
0000a0 f9 0c f8 00 11 f6 ff 2d ff f6 21 b0 fd 20 06 10
       -7 12 -8 0 17 -10 -1 45 -1 -10 33 -80 -3 32 6 16
0000b0 2e 0c 04 f6 e1 09 f9 15 09 04 fd 37 d3 0b 01 10
       46 12 4 -10 -31 9 -7 21 9 4 -3 55 -45 11 1 16
0000c0 08 01 03 04 28 0d 12 fe 1c 12 1d fa f5 04 fe 0d
       8 1 3 4 40 13 18 -2 28 18 29 -6 -11 4 -2 13
0000d0 09 03 08 07 f9 fe 0a 17 17 fa f9 19 09 f6 7f ed
       9 3 8 7 -7 -2 10 23 23 -6 -7 25 9 -10 127 -19
0000e0 ff 0b ff 03 19 0c ff fe 0e 24 07 96 01 2a 0b 04
       -1 11 -1 3 25 12 -1 -2 14 36 7 -106 1 42 11 4
0000f0 2e 14 11 15 fe 2d 17 1a 06 fd 04 f1 0c 09 fe f8
       46 20 17 21 -2 45 23 26 6 -3 4 -15 12 9 -2 -8

Conv2D_2/merged_input i1 [32, 1, 1, 32]
000000 99 ce 9c f1 10 e3 f6 1b ec 63 99 a4 aa 11 d6 ce
       -103 -50 -100 -15 16 -29 -10 27 -20 99 -103 -92 -86 17 -42 -50
000010 f1 6b b5 17 2c f3 39 20 e5 2c 13 07 20 81 13 be
       -15 107 -75 23 44 -13 57 32 -27 44 19 7 32 -127 19 -66
000020 f8 e7 ea 20 b8 fa 06 36 db 22 cd 69 d9 ba f3 ea
       -8 -25 -22 32 -72 -6 6 54 -37 34 -51 105 -39 -70 -13 -22
000030 f5 17 18 f5 00 cd f4 f5 be c1 47 cb d1 fb 62 7f
       -11 23 24 -11 0 -51 -12 -11 -66 -63 71 -53 -47 -5 98 127
000040 0c 2b 07 b0 03 c1 32 1c 3b 10 fa 44 2b 28 ed 01
       12 43 7 -80 3 -63 50 28 59 16 -6 68 43 40 -19 1
000050 be d1 da bb d6 a9 12 dd f6 c9 f4 7f da 22 14 f8
       -66 -47 -38 -69 -42 -87 18 -35 -10 -55 -12 127 -38 34 20 -8
000060 2e 47 35 ff 03 0d 81 f5 f4 cf 05 f1 ed ee 35 37
       46 71 53 -1 3 13 -127 -11 -12 -49 5 -15 -19 -18 53 55
000070 f7 11 2f c3 f0 00 27 fe 0e fa 4f f3 10 42 ab 13
       -9 17 47 -61 -16 0 39 -2 14 -6 79 -13 16 66 -85 19
000080 31 e4 36 04 4c 04 07 1f 14 cb 21 0b d2 2c 21 27
       49 -28 54 4 76 4 7 31 20 -53 33 11 -46 44 33 39
000090 1b 11 31 b0 45 2c 0b 15 cb d2 05 21 81 e3 f0 be
       27 17 49 -80 69 44 11 21 -53 -46 5 33 -127 -29 -16 -66
0000a0 fa c2 f9 c4 cf 02 f7 81 b9 d8 ec 09 5a 5e e5 f1
       -6 -62 -7 -60 -49 2 -9 -127 -71 -40 -20 9 90 94 -27 -15
0000b0 35 c0 7a da d4 1c ff e7 0f 2a ec e5 04 c7 f1 25
       53 -64 122 -38 -44 28 -1 -25 15 42 -20 -27 4 -57 -15 37
0000c0 fd 04 f3 df 1a eb 85 fb ff d4 f5 ca db 34 0a ff
       -3 4 -13 -33 26 -21 -123 -5 -1 -44 -11 -54 -37 52 10 -1
0000d0 01 47 f9 ea 07 f4 e9 12 e6 a9 7f f9 eb 17 a3 e9
       1 71 -7 -22 7 -12 -23 18 -26 -87 127 -7 -21 23 -93 -23
0000e0 12 8f f2 34 d0 fa 8a 81 e4 29 f6 17 03 2f e6 d9
       18 -113 -14 52 -48 -6 -118 -127 -28 41 -10 23 3 47 -26 -39
0000f0 18 bf 3d f3 f9 17 fd f6 43 2d 61 22 2b b6 f3 3a
       24 -65 61 -13 -7 23 -3 -10 67 45 97 34 43 -74 -13 58

Conv2D_20/ReadVariableOp i1 [8, 1, 1, 128]
000000 0c 05 fb f5 e9 4c fe f8 04 ec f9 fb 04 e2 23 00
       12 5 -5 -11 -23 76 -2 -8 4 -20 -7 -5 4 -30 35 0
000010 e3 fe fb e3 0a f6 b6 00 0f 09 fc 27 0a 04 04 fe
       -29 -2 -5 -29 10 -10 -74 0 15 9 -4 39 10 4 4 -2
000020 fe 03 01 06 07 fb fd fb 02 0f ff fa fd 4b dc 12
       -2 3 1 6 7 -5 -3 -5 2 15 -1 -6 -3 75 -36 18
000030 0f 01 00 28 ff 20 0b fc c8 dc e5 16 01 f0 02 01
       15 1 0 40 -1 32 11 -4 -56 -36 -27 22 1 -16 2 1
000040 29 0a fc f6 36 fb 01 04 f3 9d ee 47 14 71 00 0d
       41 10 -4 -10 54 -5 1 4 -13 -99 -18 71 20 113 0 13
000050 fb 07 08 f1 64 00 03 05 de 03 0f 04 fe f7 ff 0d
       -5 7 8 -15 100 0 3 5 -34 3 15 4 -2 -9 -1 13
000060 d2 3a f9 01 e2 00 fa 1d 13 f1 e4 81 14 08 e7 15
       -46 58 -7 1 -30 0 -6 29 19 -15 -28 -127 20 8 -25 21
000070 02 ca e1 31 e8 00 ff 03 fe f7 fb 04 1d 13 17 09
       2 -54 -31 49 -24 0 -1 3 -2 -9 -5 4 29 19 23 9
000080 05 a3 04 0c ff 03 fc f5 05 f8 ac 23 07 01 09 04
       5 -93 4 12 -1 3 -4 -11 5 -8 -84 35 7 1 9 4
000090 25 a6 f2 f8 39 1d 3b fc 11 f7 fe 9c 0a 03 05 00
       37 -90 -14 -8 57 29 59 -4 17 -9 -2 -100 10 3 5 0
0000a0 04 ff 02 12 06 fe 19 03 06 08 fe 05 ff 2c fd ff
       4 -1 2 18 6 -2 25 3 6 8 -2 5 -1 44 -3 -1
0000b0 f6 00 f7 58 16 00 01 fa e2 af 1f 1b 05 f2 08 f9
       -10 0 -9 88 22 0 1 -6 -30 -81 31 27 5 -14 8 -7
0000c0 fa 00 ec 0a 1d fe fd fe 02 e7 09 14 7f df 01 07
       -6 0 -20 10 29 -2 -3 -2 2 -25 9 20 127 -33 1 7
0000d0 f8 08 07 fa 07 fb fc fb 06 fc 1f 4b fc fc fb 03
       -8 8 7 -6 7 -5 -4 -5 6 -4 31 75 -4 -4 -5 3
0000e0 10 0e 00 fc 00 06 03 ee 01 f3 03 ff ba 07 00 00
       16 14 0 -4 0 6 3 -18 1 -13 3 -1 -70 7 0 0
0000f0 f8 47 b2 eb fb 02 f9 fe fd 08 0f 06 a7 14 08 f7
       -8 71 -78 -21 -5 2 -7 -2 -3 8 15 6 -89 20 8 -9

Conv2D_21/ReadVariableOp i1 [8, 1, 1, 256]
000000 ee f9 2a 02 04 e4 fe dc 38 bd db 0f 05 00 13 13
       -18 -7 42 2 4 -28 -2 -36 56 -67 -37 15 5 0 19 19
000010 02 fb fe ec e1 0b 09 05 f4 7d f7 fb fc 00 09 01
       2 -5 -2 -20 -31 11 9 5 -12 125 -9 -5 -4 0 9 1
000020 fb f8 f6 fe 01 1f fb fb fe 02 00 f4 14 fc 02 f2
       -5 -8 -10 -2 1 31 -5 -5 -2 2 0 -12 20 -4 2 -14
000030 02 01 07 06 07 2d e2 fe e3 ff 09 11 0d 0f ff fd
       2 1 7 6 7 45 -30 -2 -29 -1 9 17 13 15 -1 -3
000040 1a 03 08 00 dd 03 fe 2d d7 01 fc 09 00 0c 06 d2
       26 3 8 0 -35 3 -2 45 -41 1 -4 9 0 12 6 -46
000050 06 c7 24 f0 08 f1 11 f1 01 b3 0a fd f9 04 fd 0b
       6 -57 36 -16 8 -15 17 -15 1 -77 10 -3 -7 4 -3 11
000060 fb ee fe 0e 0e 07 d8 fc fa 02 e4 fd 07 14 ad fc
       -5 -18 -2 14 14 7 -40 -4 -6 2 -28 -3 7 20 -83 -4
000070 0c c3 fc 04 f8 01 f5 fd 1f 03 fb 61 04 08 dd 00
       12 -61 -4 4 -8 1 -11 -3 31 3 -5 97 4 8 -35 0
000080 f8 b0 fd f7 f6 05 56 72 f0 f9 01 06 81 08 04 0c
       -8 -80 -3 -9 -10 5 86 114 -16 -7 1 6 -127 8 4 12
000090 00 6c 31 18 05 fe 2b f9 ff 05 f8 1a d1 df 00 fb
       0 108 49 24 5 -2 43 -7 -1 5 -8 26 -47 -33 0 -5
0000a0 fc 16 e1 fe 02 fd ef df 91 eb 01 fe 05 c9 f5 02
       -4 22 -31 -2 2 -3 -17 -33 -111 -21 1 -2 5 -55 -11 2
0000b0 fe 15 02 fa 14 f7 10 09 b8 07 f6 18 d9 ef 03 fa
       -2 21 2 -6 20 -9 16 9 -72 7 -10 24 -39 -17 3 -6
0000c0 01 05 e8 db ff ff 04 04 03 f9 f0 fe fe f6 03 02
       1 5 -24 -37 -1 -1 4 4 3 -7 -16 -2 -2 -10 3 2
0000d0 e9 04 fb cc e2 fe fa 0f ff f3 eb 04 06 c9 ee 02
       -23 4 -5 -52 -30 -2 -6 15 -1 -13 -21 4 6 -55 -18 2
0000e0 fa 00 0b 01 00 fe 34 0d 5b fa fd 04 09 fd 0f 3b
       -6 0 11 1 0 -2 52 13 91 -6 -3 4 9 -3 15 59
0000f0 fe ca f9 3d f8 e6 02 f6 fe 04 ff 04 02 f1 16 08
       -2 -54 -7 61 -8 -26 2 -10 -2 4 -1 4 2 -15 22 8

Conv2D_22/ReadVariableOp i1 [12, 3, 3, 256]
000000 fe 04 01 03 ff fe fd f4 01 03 05 01 fb fc 03 f8
       -2 4 1 3 -1 -2 -3 -12 1 3 5 1 -5 -4 3 -8
000010 02 fa fe f7 06 fd fc ff f9 ed 02 f7 04 fc 04 02
       2 -6 -2 -9 6 -3 -4 -1 -7 -19 2 -9 4 -4 4 2
000020 03 f4 08 f9 f9 fb 02 04 fd fd 0e 02 ff 04 f2 01
       3 -12 8 -7 -7 -5 2 4 -3 -3 14 2 -1 4 -14 1
000030 fe fc fa fe fc 0a 04 fe fb 04 02 fd 00 f3 f8 f4
       -2 -4 -6 -2 -4 10 4 -2 -5 4 2 -3 0 -13 -8 -12
000040 fd 02 08 fb fe fe ff 03 02 02 f9 fa 01 02 05 fc
       -3 2 8 -5 -2 -2 -1 3 2 2 -7 -6 1 2 5 -4
000050 f7 03 06 fe 00 f7 fe 09 ff 07 03 fb 02 03 f7 02
       -9 3 6 -2 0 -9 -2 9 -1 7 3 -5 2 3 -9 2
000060 f4 fc ff f8 fe ff fa fe 04 fc ff 03 fb f5 03 06
       -12 -4 -1 -8 -2 -1 -6 -2 4 -4 -1 3 -5 -11 3 6
000070 ee 01 09 02 05 fb 02 05 fa f9 fd fe fb f8 04 fe
       -18 1 9 2 5 -5 2 5 -6 -7 -3 -2 -5 -8 4 -2
000080 f6 04 fc ec 00 f6 02 03 ff 05 f9 04 05 fd 18 f7
       -10 4 -4 -20 0 -10 2 3 -1 5 -7 4 5 -3 24 -9
000090 ff fc fa 01 01 11 fc 03 f4 f6 04 fb f9 fc 09 f2
       -1 -4 -6 1 1 17 -4 3 -12 -10 4 -5 -7 -4 9 -14
0000a0 0d fc f6 06 fa fe 01 05 f7 03 03 03 05 02 05 fb
       13 -4 -10 6 -6 -2 1 5 -9 3 3 3 5 2 5 -5
0000b0 06 06 fb fc fa f8 fe fc f5 01 00 f8 0c f6 0a f4
       6 6 -5 -4 -6 -8 -2 -4 -11 1 0 -8 12 -10 10 -12
0000c0 f4 ff 02 0b f9 04 f9 f9 fc fd 01 02 fa f0 0a 09
       -12 -1 2 11 -7 4 -7 -7 -4 -3 1 2 -6 -16 10 9
0000d0 0a 09 00 09 fe 04 05 03 f9 ff 02 ff ff 05 02 f6
       10 9 0 9 -2 4 5 3 -7 -1 2 -1 -1 5 2 -10
0000e0 04 06 fc 0a 05 02 04 ff 03 06 ff 00 ff 03 09 05
       4 6 -4 10 5 2 4 -1 3 6 -1 0 -1 3 9 5
0000f0 fc f7 fc 00 fe 01 09 03 fe fc f7 07 f3 fe 03 f6
       -4 -9 -4 0 -2 1 9 3 -2 -4 -9 7 -13 -2 3 -10

Conv2D_23/ReadVariableOp i1 [30, 1, 1, 64]
000000 fc f1 ed 1a f6 02 ed 04 ef fe b2 fb fb eb 06 81
       -4 -15 -19 26 -10 2 -19 4 -17 -2 -78 -5 -5 -21 6 -127
000010 e9 f8 f8 02 fe fb f5 ff 00 06 f8 09 e6 fc 02 a6
       -23 -8 -8 2 -2 -5 -11 -1 0 6 -8 9 -26 -4 2 -90
000020 df f8 f1 f9 fa fd 0e 07 03 fb 56 0c f4 f5 e4 ec
       -33 -8 -15 -7 -6 -3 14 7 3 -5 86 12 -12 -11 -28 -20
000030 0d 00 06 fa ff 30 6c 04 04 09 ed 06 f9 e9 e5 06
       13 0 6 -6 -1 48 108 4 4 9 -19 6 -7 -23 -27 6
000040 00 e9 f0 ff df 03 1d f5 e4 03 e8 e1 df c8 fc f7
       0 -23 -16 -1 -33 3 29 -11 -28 3 -24 -31 -33 -56 -4 -9
000050 f4 03 1e 05 08 02 e7 19 04 d2 fb fc e3 e5 04 be
       -12 3 30 5 8 2 -25 25 4 -46 -5 -4 -29 -27 4 -66
000060 e7 5b f0 fc 7f 0e f5 00 01 fd f6 05 15 81 0b fa
       -25 91 -16 -4 127 14 -11 0 1 -3 -10 5 21 -127 11 -6
000070 06 fb 04 f4 d6 e3 f6 f5 fb ea db fc 03 f1 df fd
       6 -5 4 -12 -42 -29 -10 -11 -5 -22 -37 -4 3 -15 -33 -3
000080 08 1c f6 04 0a 0d 0c f3 2b f5 24 0d f9 25 fd 81
       8 28 -10 4 10 13 12 -13 43 -11 36 13 -7 37 -3 -127
000090 ea 04 ce 06 02 fd 0f f7 00 1d fa 1f 24 15 02 5a
       -22 4 -50 6 2 -3 15 -9 0 29 -6 31 36 21 2 90
0000a0 19 02 18 04 00 fd 22 05 01 f7 6d 0e e3 03 17 f5
       25 2 24 4 0 -3 34 5 1 -9 109 14 -29 3 23 -11
0000b0 eb 06 07 e8 45 b5 5b 08 f9 f4 24 fb 04 13 26 08
       -21 6 7 -24 69 -75 91 8 -7 -12 36 -5 4 19 38 8
0000c0 01 ef ea 01 dd 09 03 f5 ec 00 eb e2 e0 c5 fb fa
       1 -17 -22 1 -35 9 3 -11 -20 0 -21 -30 -32 -59 -5 -6
0000d0 f7 fe 0a fe 0c 04 f1 1a 01 d2 fd f1 e0 e6 06 ae
       -9 -2 10 -2 12 4 -15 26 1 -46 -3 -15 -32 -26 6 -82
0000e0 fb 5b f2 fd 7f 0e 09 00 06 04 f7 08 12 84 04 ff
       -5 91 -14 -3 127 14 9 0 6 4 -9 8 18 -124 4 -1
0000f0 03 f8 04 fe ea e7 f1 02 05 e9 ec fb 00 e9 db 14
       3 -8 4 -2 -22 -25 -15 2 5 -23 -20 -5 0 -23 -37 20

Conv2D_24/ReadVariableOp i1 [20, 1, 1, 128]
000000 fe ce d6 03 f9 fe 14 fa 01 dc ff f7 07 05 e8 ff
       -2 -50 -42 3 -7 -2 20 -6 1 -36 -1 -9 7 5 -24 -1
000010 fa ff 03 62 e8 f9 eb f7 df fd 09 3a 17 02 06 01
       -6 -1 3 98 -24 -7 -21 -9 -33 -3 9 58 23 2 6 1
000020 fa fb f9 58 e4 1e 01 f0 c0 fc 00 01 f3 45 c7 e3
       -6 -5 -7 88 -28 30 1 -16 -64 -4 0 1 -13 69 -57 -29
000030 af 00 fa fe 07 f0 56 fc cd c3 f9 fa fb 40 fc fc
       -81 0 -6 -2 7 -16 86 -4 -51 -61 -7 -6 -5 64 -4 -4
000040 8e fe eb 81 f0 fe 04 06 f7 ac fc ff 00 10 fd 88
       -114 -2 -21 -127 -16 -2 4 6 -9 -84 -4 -1 0 16 -3 -120
000050 fa 0c 0c 01 06 fd ef e4 dc fe 6d ed 05 f6 f8 dd
       -6 12 12 1 6 -3 -17 -28 -36 -2 109 -19 5 -10 -8 -35
000060 19 f5 dc 05 f7 00 e8 dd 00 1b fa 9c ee 03 06 03
       25 -11 -36 5 -9 0 -24 -35 0 27 -6 -100 -18 3 6 3
000070 e9 3a 00 4f f5 fd fa 04 fa f7 ed 01 f6 b0 15 d8
       -23 58 0 79 -11 -3 -6 4 -6 -9 -19 1 -10 -80 21 -40
000080 fa 13 c7 fe 02 01 f9 fe fb f0 1c 02 01 03 01 f8
       -6 19 -57 -2 2 1 -7 -2 -5 -16 28 2 1 3 1 -8
000090 60 6d 04 00 a6 05 f5 fb 3e 81 fb aa fa e4 00 fc
       96 109 4 0 -90 5 -11 -5 62 -127 -5 -86 -6 -28 0 -4
0000a0 fa ff 12 fc f0 c1 ed 03 c7 04 01 1f fc 48 2d f7
       -6 -1 18 -4 -16 -63 -19 3 -57 4 1 31 -4 72 45 -9
0000b0 1d fe 05 ff fe f2 1e fd fe 89 df 00 e0 f3 01 fc
       29 -2 5 -1 -2 -14 30 -3 -2 -119 -33 0 -32 -13 1 -4
0000c0 14 00 f6 fb f4 fe fe fb f5 f0 fe f7 11 ec fb 1f
       20 0 -10 -5 -12 -2 -2 -5 -11 -16 -2 -9 17 -20 -5 31
0000d0 05 01 f0 0c 01 02 f3 e9 dd 03 f5 18 01 f1 f9 eb
       5 1 -16 12 1 2 -13 -23 -35 3 -11 24 1 -15 -7 -21
0000e0 f8 fe ef fb ec fe fd fb ff e7 fb f9 8b fb f7 00
       -8 -2 -17 -5 -20 -2 -3 -5 -1 -25 -5 -7 -117 -5 -9 0
0000f0 db e5 05 dc ee 01 01 05 01 ef f9 fe b6 ee 06 e8
       -37 -27 5 -36 -18 1 1 5 1 -17 -7 -2 -74 -18 6 -24

Conv2D_25/ReadVariableOp i1 [20, 1, 1, 256]
000000 0a fc d6 ff fd f7 09 25 5d fd 02 fb f5 e3 01 00
       10 -4 -42 -1 -3 -9 9 37 93 -3 2 -5 -11 -29 1 0
000010 01 fe fa 2d d1 07 f7 ff 01 3d ff c2 ff 00 fb fd
       1 -2 -6 45 -47 7 -9 -1 1 61 -1 -62 -1 0 -5 -3
000020 f1 f6 0a 00 0a d2 fb e6 4e 00 fd e6 fe 00 02 0e
       -15 -10 10 0 10 -46 -5 -26 78 0 -3 -26 -2 0 2 14
000030 fb 03 f4 04 fe 01 07 fd 01 23 02 a2 ed f3 0c fa
       -5 3 -12 4 -2 1 7 -3 1 35 2 -94 -19 -13 12 -6
000040 02 f8 f0 07 a9 fb 04 f9 fe 01 ee ff fa eb 06 1f
       2 -8 -16 7 -87 -5 4 -7 -2 1 -18 -1 -6 -21 6 31
000050 fc 09 02 00 03 cc 05 01 04 16 ff 04 01 fc ff a9
       -4 9 2 0 3 -52 5 1 4 22 -1 4 1 -4 -1 -87
000060 cf fa ff 10 f2 f0 f1 f3 2b fa fb d0 05 ee fe fd
       -49 -6 -1 16 -14 -16 -15 -13 43 -6 -5 -48 5 -18 -2 -3
000070 ec 01 fd f7 ff ea 29 d8 05 f2 f7 02 f9 f9 c7 ec
       -20 1 -3 -9 -1 -22 41 -40 5 -14 -9 2 -7 -7 -57 -20
000080 f4 0e 04 02 fc f6 05 ec b7 f7 03 fa c6 f3 fe 06
       -12 14 4 2 -4 -10 5 -20 -73 -9 3 -6 -58 -13 -2 6
000090 fd 1f a5 f7 f4 b1 06 08 fd 02 ff f8 fc 07 d6 e2
       -3 31 -91 -9 -12 -79 6 8 -3 2 -1 -8 -4 7 -42 -30
0000a0 f1 13 fe e3 f9 00 fe ec 81 ff 10 04 05 e7 fc 0d
       -15 19 -2 -29 -7 0 -2 -20 -127 -1 16 4 5 -25 -4 13
0000b0 fe ff ff 01 f3 f6 10 fa fc ff 30 fe fe e8 fb fb
       -2 -1 -1 1 -13 -10 16 -6 -4 -1 48 -2 -2 -24 -5 -5
0000c0 f2 c3 06 f7 5e 00 ec fe 04 03 fc ff fb 08 4d fb
       -14 -61 6 -9 94 0 -20 -2 4 3 -4 -1 -5 8 77 -5
0000d0 e9 f8 d9 f9 f7 03 02 b4 01 df 03 fc ff ff 01 f3
       -23 -8 -39 -7 -9 3 2 -76 1 -33 3 -4 -1 -1 1 -13
0000e0 00 fa ed fd fd f6 f3 6e 41 ff fb 00 f4 fb ff 00
       0 -6 -19 -3 -3 -10 -13 110 65 -1 -5 0 -12 -5 -1 0
0000f0 fc ff 0b fe fc 00 b0 f7 2b f6 60 01 fc fc 00 0d
       -4 -1 11 -2 -4 0 -80 -9 43 -10 96 1 -4 -4 0 13

Conv2D_26/ReadVariableOp i1 [30, 3, 3, 256]
000000 ff ff 02 fa fb 04 f9 ee f9 fd 01 fc 07 ff 0b 01
       -1 -1 2 -6 -5 4 -7 -18 -7 -3 1 -4 7 -1 11 1
000010 01 02 09 fb 07 01 f4 fe fe e7 04 f9 02 fe fb fe
       1 2 9 -5 7 1 -12 -2 -2 -25 4 -7 2 -2 -5 -2
000020 fd 00 f8 04 02 f7 fd ff 00 04 04 fc 02 fe f2 06
       -3 0 -8 4 2 -9 -3 -1 0 4 4 -4 2 -2 -14 6
000030 00 03 01 02 ff f9 fd 02 f8 07 fc 05 fa ff fe 01
       0 3 1 2 -1 -7 -3 2 -8 7 -4 5 -6 -1 -2 1
000040 fd 01 fc fb 07 0a fb 04 ff 03 fb f4 00 02 f7 05
       -3 1 -4 -5 7 10 -5 4 -1 3 -5 -12 0 2 -9 5
000050 f9 00 fa fb 06 02 fc fd fc 01 05 ff 02 fc ff 00
       -7 0 -6 -5 6 2 -4 -3 -4 1 5 -1 2 -4 -1 0
000060 01 05 00 fb 03 f6 00 f9 05 01 fa fc 03 fa 0a 0f
       1 5 0 -5 3 -10 0 -7 5 1 -6 -4 3 -6 10 15
000070 f1 07 07 00 01 fb ff ff fa f8 00 02 fe fa 04 f9
       -15 7 7 0 1 -5 -1 -1 -6 -8 0 2 -2 -6 4 -7
000080 f6 fe f3 fd 03 f4 05 00 fd 04 fe fc 00 fe 0e fc
       -10 -2 -13 -3 3 -12 5 0 -3 4 -2 -4 0 -2 14 -4
000090 ff f8 f7 fb 02 fe fb fc fe f6 06 00 fa ff 00 fe
       -1 -8 -9 -5 2 -2 -5 -4 -2 -10 6 0 -6 -1 0 -2
0000a0 0f ff fd 03 fa fb 00 12 fb 06 f7 02 02 06 03 02
       15 -1 -3 3 -6 -5 0 18 -5 6 -9 2 2 6 3 2
0000b0 0b 03 f6 fb ff 01 fd 07 fc 01 02 fd 08 ff 07 e9
       11 3 -10 -5 -1 1 -3 7 -4 1 2 -3 8 -1 7 -23
0000c0 fd 00 ff 00 01 08 01 fa fc 05 02 fc 02 fc 00 03
       -3 0 -1 0 1 8 1 -6 -4 5 2 -4 2 -4 0 3
0000d0 03 09 ff 01 02 fb fd fe f2 06 0a 05 04 f4 ff f9
       3 9 -1 1 2 -5 -3 -2 -14 6 10 5 4 -12 -1 -7
0000e0 04 05 03 04 0c 01 02 fe fd 09 fc fb 03 03 02 02
       4 5 3 4 12 1 2 -2 -3 9 -4 -5 3 3 2 2
0000f0 ff f8 03 fd fb 06 07 05 06 fb 02 05 05 fe f7 fe
       -1 -8 3 -3 -5 6 7 5 6 -5 2 5 5 -2 -9 -2

Conv2D_3/merged_input i1 [32, 1, 1, 32]
000000 ca 81 f2 b9 e8 23 2a e6 e2 f0 d8 03 d0 14 07 42
       -54 -127 -14 -71 -24 35 42 -26 -30 -16 -40 3 -48 20 7 66
000010 e1 d4 ef f0 ea eb 24 06 fa d0 0e 01 25 f2 f9 bc
       -31 -44 -17 -16 -22 -21 36 6 -6 -48 14 1 37 -14 -7 -68
000020 ef fc 52 0b 51 27 f0 42 d3 ff 81 1f fa 08 d4 df
       -17 -4 82 11 81 39 -16 66 -45 -1 -127 31 -6 8 -44 -33
000030 a5 f8 1e fe 98 c4 99 e9 fe 68 b1 4e eb c8 ba 08
       -91 -8 30 -2 -104 -60 -103 -23 -2 104 -79 78 -21 -56 -70 8
000040 11 e1 c0 2e f0 09 24 0f cb 09 c5 d1 03 6a 7d 2d
       17 -31 -64 46 -16 9 36 15 -53 9 -59 -47 3 106 125 45
000050 c3 c0 b0 7f 30 d8 cb e0 f2 ff d3 a2 48 1e 25 f0
       -61 -64 -80 127 48 -40 -53 -32 -14 -1 -45 -94 72 30 37 -16
000060 92 26 79 30 f6 f0 ed ba dd 5c cc 1b 9e 2b 0c 11
       -110 38 121 48 -10 -16 -19 -70 -35 92 -52 27 -98 43 12 17
000070 ed 9f 9b 42 81 58 c7 20 96 ed 8e 1c 18 c5 1d 5b
       -19 -97 -101 66 -127 88 -57 32 -106 -19 -114 28 24 -59 29 91
000080 ed eb c1 f7 c2 4a 42 6a 81 eb 9c 33 e2 04 f8 00
       -19 -21 -63 -9 -62 74 66 106 -127 -21 -100 51 -30 4 -8 0
000090 0d d3 31 d8 f9 f9 ca 2a f2 cd da b6 36 16 20 d0
       13 -45 49 -40 -7 -7 -54 42 -14 -51 -38 -74 54 22 32 -48
0000a0 e9 a6 43 fd 1d fb 4e ea 34 ff c1 d8 09 ee 0f d8
       -23 -90 67 -3 29 -5 78 -22 52 -1 -63 -40 9 -18 15 -40
0000b0 de 4c f3 fe be bc e3 ab c1 1d b1 7f fb f1 e8 e3
       -34 76 -13 -2 -66 -68 -29 -85 -63 29 -79 127 -5 -15 -24 -29
0000c0 dd 06 67 9d 17 dc 75 11 03 e3 ad c6 c6 ad d9 1c
       -35 6 103 -99 23 -36 117 17 3 -29 -83 -58 -58 -83 -39 28
0000d0 9c 32 ec e6 81 8a 25 e2 ef c5 0f 20 01 e6 89 94
       -100 50 -20 -26 -127 -118 37 -30 -17 -59 15 32 1 -26 -119 -108
0000e0 1c 20 26 0c fa 26 eb 39 4a ea 22 3b 34 81 05 dd
       28 32 38 12 -6 38 -21 57 74 -22 34 59 52 -127 5 -35
0000f0 20 08 fc e5 0e aa e7 dd ea 14 fe f9 e8 cf e8 ce
       32 8 -4 -27 14 -86 -25 -35 -22 20 -2 -7 -24 -49 -24 -50

Conv2D_4/merged_input i1 [64, 1, 1, 32]
000000 47 35 07 12 28 fb 81 c7 db 2b c9 09 bc cf 15 ca
       71 53 7 18 40 -5 -127 -57 -37 43 -55 9 -68 -49 21 -54
000010 d9 10 0f 1d 0f f7 4b f5 08 1e 50 6f 08 0c 01 36
       -39 16 15 29 15 -9 75 -11 8 30 80 111 8 12 1 54
000020 2a 0c dd 3d de 3f 0f eb a4 89 d0 e5 f6 fb bc a9
       42 12 -35 61 -34 63 15 -21 -92 -119 -48 -27 -10 -5 -68 -87
000030 0a c2 15 4c 43 06 cb 02 7f bc fe 1f 4a e8 fc 1e
       10 -62 21 76 67 6 -53 2 127 -68 -2 31 74 -24 -4 30
000040 14 36 1c 53 2f ff c7 6f 81 d3 0c 26 da 19 d1 48
       20 54 28 83 47 -1 -57 111 -127 -45 12 38 -38 25 -47 72
000050 48 54 43 5c 66 52 4d 04 10 1e 13 eb 3a 85 f2 62
       72 84 67 92 102 82 77 4 16 30 19 -21 58 -123 -14 98
000060 14 fa eb 4e 0e bb 4b 21 f1 ef e5 0f 1c f5 c8 3e
       20 -6 -21 78 14 -69 75 33 -15 -17 -27 15 28 -11 -56 62
000070 18 45 00 4e 71 ec de 09 d8 27 46 81 ff 2f cc ec
       24 69 0 78 113 -20 -34 9 -40 39 70 -127 -1 47 -52 -20
000080 13 02 dd e0 16 da f6 26 de eb e6 f2 b6 fc ee 81
       19 2 -35 -32 22 -38 -10 38 -34 -21 -26 -14 -74 -4 -18 -127
000090 01 18 0b 28 22 f5 fc 03 da f7 2b 30 d9 ec e6 18
       1 24 11 40 34 -11 -4 3 -38 -9 43 48 -39 -20 -26 24
0000a0 18 07 8a e7 49 53 08 3c 7f 0b 19 ee ef 36 c1 3d
       24 7 -118 -25 73 83 8 60 127 11 25 -18 -17 54 -63 61
0000b0 03 1b f8 c5 fc de ba df c7 ec 2a e8 e5 b3 14 b1
       3 27 -8 -59 -4 -34 -70 -33 -57 -20 42 -24 -27 -77 20 -79
0000c0 d3 1d d5 dd 46 11 20 da 08 81 c7 52 1d dc 31 fe
       -45 29 -43 -35 70 17 32 -38 8 -127 -57 82 29 -36 49 -2
0000d0 f6 30 f5 c6 e8 cd ed 1a ef 35 03 e8 e7 f2 fd af
       -10 48 -11 -58 -24 -51 -19 26 -17 53 3 -24 -25 -14 -3 -81
0000e0 b6 ce e6 37 49 f0 bc 53 ec 09 fa 7f fa 0b 23 e4
       -74 -50 -26 55 73 -16 -68 83 -20 9 -6 127 -6 11 35 -28
0000f0 eb bb 06 c2 35 13 16 44 10 c8 00 60 c8 c9 e5 d3
       -21 -69 6 -62 53 19 22 68 16 -56 0 96 -56 -55 -27 -45

Conv2D_5/merged_input i1 [64, 1, 1, 64]
000000 b8 2d 0f d4 12 f8 25 22 f7 0d f0 e3 ef fe d4 de
       -72 45 15 -44 18 -8 37 34 -9 13 -16 -29 -17 -2 -44 -34
000010 f8 0d 2e 18 4a e8 b0 da 10 db 1b b2 f0 00 ac 1a
       -8 13 46 24 74 -24 -80 -38 16 -37 27 -78 -16 0 -84 26
000020 e9 cc ad 29 4e dc 46 ca cf 23 05 07 b3 f9 c3 0b
       -23 -52 -83 41 78 -36 70 -54 -49 35 5 7 -77 -7 -61 11
000030 d6 18 d1 36 07 07 1e 05 e2 35 3f 81 44 d3 f2 fa
       -42 24 -47 54 7 7 30 5 -30 53 63 -127 68 -45 -14 -6
000040 e6 d3 14 fe ef bd 0a 42 84 3b ac cc f7 c6 5d 0b
       -26 -45 20 -2 -17 -67 10 66 -124 59 -84 -52 -9 -58 93 11
000050 e1 0d 10 3a e7 8e ea 04 e8 11 27 7f b6 cf fb e6
       -31 13 16 58 -25 -114 -22 4 -24 17 39 127 -74 -49 -5 -26
000060 f4 14 19 95 a1 20 e8 cd d9 ea 34 01 00 11 21 09
       -12 20 25 -107 -95 32 -24 -51 -39 -22 52 1 0 17 33 9
000070 c1 75 c5 26 26 3c 01 d9 9c b8 f5 97 0e 10 ba 3e
       -63 117 -59 38 38 60 1 -39 -100 -72 -11 -105 14 16 -70 62
000080 64 1f 21 04 43 24 14 11 1b 9a 4f da 7f be 9f f0
       100 31 33 4 67 36 20 17 27 -102 79 -38 127 -66 -97 -16
000090 24 12 1a d1 f5 0b 23 ce d7 e5 f7 d2 20 d1 4b 14
       36 18 26 -47 -11 11 35 -50 -41 -27 -9 -46 32 -47 75 20
0000a0 ef 23 05 41 17 c1 f9 f5 be bd f4 f1 f7 e8 dc f7
       -17 35 5 65 23 -63 -7 -11 -66 -67 -12 -15 -9 -24 -36 -9
0000b0 e8 91 e1 1f fc e9 37 06 4f d9 3a f7 4b 09 ec 24
       -24 -111 -31 31 -4 -23 55 6 79 -39 58 -9 75 9 -20 36
0000c0 e4 e0 0e 31 e0 94 69 f8 04 4d 17 05 b0 10 f9 c7
       -28 -32 14 49 -32 -108 105 -8 4 77 23 5 -80 16 -7 -57
0000d0 31 38 53 1a 33 22 09 65 34 dc f9 0f 0c 14 cd 43
       49 56 83 26 51 34 9 101 52 -36 -7 15 12 20 -51 67
0000e0 01 68 11 a1 c3 0b ef 1c 1d fd 29 fe 1f 0c 9b 72
       1 104 17 -95 -61 11 -17 28 29 -3 41 -2 31 12 -101 114
0000f0 e8 40 0b 37 ee 11 fc f4 04 cc 26 81 0a 0d 09 d0
       -24 64 11 55 -18 17 -4 -12 4 -52 38 -127 10 13 9 -48

Conv2D_6/merged_input i1 [64, 1, 1, 64]
000000 e5 20 e2 24 05 18 0e fd e4 04 d4 17 b4 e2 ed 0d
       -27 32 -30 36 5 24 14 -3 -28 4 -44 23 -76 -30 -19 13
000010 b5 1c f8 e0 1d 20 ce bd 65 f3 05 e6 f1 db ea b6
       -75 28 -8 -32 29 32 -50 -67 101 -13 5 -26 -15 -37 -22 -74
000020 bc f3 e1 85 10 af a5 d8 13 fb d7 96 9b ae 0d e7
       -68 -13 -31 -123 16 -81 -91 -40 19 -5 -41 -106 -101 -82 13 -25
000030 00 e9 20 7f 31 cb 10 f8 db 25 fc 02 12 1d ef f7
       0 -23 32 127 49 -53 16 -8 -37 37 -4 2 18 29 -17 -9
000040 17 38 1a a6 13 d7 f4 ee d5 ea 26 de ea 5e eb 29
       23 56 26 -90 19 -41 -12 -18 -43 -22 38 -34 -22 94 -21 41
000050 14 0f 97 a1 ec 98 26 fb c0 42 09 92 ff 00 c0 49
       20 15 -105 -95 -20 -104 38 -5 -64 66 9 -110 -1 0 -64 73
000060 c5 ce ff 81 cb e8 eb 10 f0 1f b8 01 dc 0f b3 ef
       -59 -50 -1 -127 -53 -24 -21 16 -16 31 -72 1 -36 15 -77 -17
000070 0b 62 e8 ec 31 f0 ed 2f 64 f4 13 0f f5 08 04 cc
       11 98 -24 -20 49 -16 -19 47 100 -12 19 15 -11 8 4 -52
000080 17 0d 03 56 ea 38 11 f4 74 ce cf ac fd 6b 7f 1e
       23 13 3 86 -22 56 17 -12 116 -50 -49 -84 -3 107 127 30
000090 0b f6 ef 38 15 d4 f5 f2 eb 32 d2 e0 22 19 f0 2b
       11 -10 -17 56 21 -44 -11 -14 -21 50 -46 -32 34 25 -16 43
0000a0 fd eb da cf ef dc 95 22 e3 b7 1e dd 08 e1 10 d0
       -3 -21 -38 -49 -17 -36 -107 34 -29 -73 30 -35 8 -31 16 -48
0000b0 f1 a0 f2 1a f3 d8 df 8c fe 0a c6 44 42 2e e7 da
       -15 -96 -14 26 -13 -40 -33 -116 -2 10 -58 68 66 46 -25 -38
0000c0 4b f3 55 07 cd e8 27 24 06 0f 03 3c c3 0b 0b e1
       75 -13 85 7 -51 -24 39 36 6 15 3 60 -61 11 11 -31
0000d0 af fa db 01 e1 2a f5 27 b9 06 e9 fb 7f 21 1e 32
       -81 -6 -37 1 -31 42 -11 39 -71 6 -23 -5 127 33 30 50
0000e0 49 00 fc 05 e2 09 e5 00 27 12 e7 ef d6 e7 df 28
       73 0 -4 5 -30 9 -27 0 39 18 -25 -17 -42 -25 -33 40
0000f0 0a 06 07 fc db 0c 34 3a c3 e2 06 1e 82 d2 f9 17
       10 6 7 -4 -37 12 52 58 -61 -30 6 30 -126 -46 -7 23

Conv2D_7/merged_input i1 [64, 1, 1, 64]
000000 43 27 d2 0b dc e2 23 31 ed 19 1b d7 dd 35 f0 00
       67 39 -46 11 -36 -30 35 49 -19 25 27 -41 -35 53 -16 0
000010 df 23 e7 31 f2 ba ed f5 40 e9 c4 7d 13 bd dd f0
       -33 35 -25 49 -14 -70 -19 -11 64 -23 -60 125 19 -67 -35 -16
000020 f0 01 e0 e0 eb 18 0c 37 fc e4 66 0f 22 0c 2b 05
       -16 1 -32 -32 -21 24 12 55 -4 -28 102 15 34 12 43 5
000030 05 f0 38 e3 ec f3 81 ed e5 e6 20 07 10 fc d3 f1
       5 -16 56 -29 -20 -13 -127 -19 -27 -26 32 7 16 -4 -45 -15
000040 e6 f6 f8 cc dd 3e 98 2e 1b cb 07 f3 23 2e ea 02
       -26 -10 -8 -52 -35 62 -104 46 27 -53 7 -13 35 46 -22 2
000050 e3 d0 19 ea f8 c7 a1 35 d9 04 d7 f1 81 cd f5 cf
       -29 -48 25 -22 -8 -57 -95 53 -39 4 -41 -15 -127 -51 -11 -49
000060 26 3c f3 e2 f5 f8 d1 c2 df f1 f6 1d d8 cd e4 e2
       38 60 -13 -30 -11 -8 -47 -62 -33 -15 -10 29 -40 -51 -28 -30
000070 0b 9e 1f 1b 0f d2 f1 10 2b 03 04 78 e9 0f 04 cf
       11 -98 31 27 15 -46 -15 16 43 3 4 120 -23 15 4 -49
000080 ce ee 26 74 d7 fb 04 4c e0 2e 29 c0 d7 e0 df fa
       -50 -18 38 116 -41 -5 4 76 -32 46 41 -64 -41 -32 -33 -6
000090 ca 81 0b 43 26 ea c5 c7 fc 2f d2 14 08 89 b7 9a
       -54 -127 11 67 38 -22 -59 -57 -4 47 -46 20 8 -119 -73 -102
0000a0 fa 13 27 54 e0 ba d2 19 4f 0a 05 57 d8 c2 5f fd
       -6 19 39 84 -32 -70 -46 25 79 10 5 87 -40 -62 95 -3
0000b0 cb 1c 40 4b 04 fa d2 f2 08 b7 0f cd 51 22 1e 20
       -53 28 64 75 4 -6 -46 -14 8 -73 15 -51 81 34 30 32
0000c0 f7 f2 05 fd eb fc 2d b7 f1 81 ca 97 f7 12 da 19
       -9 -14 5 -3 -21 -4 45 -73 -15 -127 -54 -105 -9 18 -38 25
0000d0 fb f6 08 12 01 ff ef 0a fc 05 e4 ff 16 ee f9 04
       -5 -10 8 18 1 -1 -17 10 -4 5 -28 -1 22 -18 -7 4
0000e0 0a 04 25 0c 98 ff 05 07 0d fc 01 f4 ff 0e 0b 02
       10 4 37 12 -104 -1 5 7 13 -4 1 -12 -1 14 11 2
0000f0 e7 1c 08 03 f8 f7 d7 1d 07 f5 d0 e4 fe fe 0e 05
       -25 28 8 3 -8 -9 -41 29 7 -11 -48 -28 -2 -2 14 5

Conv2D_8/merged_input i1 [128, 1, 1, 64]
000000 3b 45 29 23 36 ba c8 f5 05 06 ec d7 ff 14 ee f8
       59 69 41 35 54 -70 -56 -11 5 6 -20 -41 -1 20 -18 -8
000010 7f c7 ec e9 d6 f9 b0 e7 e7 e1 19 f6 16 de 1f f2
       127 -57 -20 -23 -42 -7 -80 -25 -25 -31 25 -10 22 -34 31 -14
000020 22 9c ab 0f fe 88 ce 10 c3 17 e5 ea d3 e5 ed c5
       34 -100 -85 15 -2 -120 -50 16 -61 23 -27 -22 -45 -27 -19 -59
000030 28 44 03 d2 27 fa c1 16 b1 f6 25 e6 dc f8 df ec
       40 68 3 -46 39 -6 -63 22 -79 -10 37 -26 -36 -8 -33 -20
000040 28 28 1b e6 19 3b e2 01 f3 05 22 01 04 ea ea 1a
       40 40 27 -26 25 59 -30 1 -13 5 34 1 4 -22 -22 26
000050 00 35 ec 0e 1d 0c 81 16 fb f4 f2 f4 f6 05 fc 14
       0 53 -20 14 29 12 -127 22 -5 -12 -14 -12 -10 5 -4 20
000060 dc 59 f7 69 25 22 13 25 09 21 fc c5 fa 34 00 d3
       -36 89 -9 105 37 34 19 37 9 33 -4 -59 -6 52 0 -45
000070 fa 19 d7 36 13 f9 2d 27 c9 d1 17 24 fd 08 e1 05
       -6 25 -41 54 19 -7 45 39 -55 -47 23 36 -3 8 -31 5
000080 03 d6 f3 04 00 c9 be e6 2a fd d5 12 f5 eb 1e 24
       3 -42 -13 4 0 -55 -66 -26 42 -3 -43 18 -11 -21 30 36
000090 ec 08 01 f2 fe 81 13 e6 ec f3 f6 f2 df 1e f1 1e
       -20 8 1 -14 -2 -127 19 -26 -20 -13 -10 -14 -33 30 -15 30
0000a0 24 0f d7 15 d0 e4 3e c7 11 f7 10 19 f4 d8 f7 2e
       36 15 -41 21 -48 -28 62 -57 17 -9 16 25 -12 -40 -9 46
0000b0 0b c8 ef fe d3 17 fe f2 f2 f7 d9 95 f5 f9 9c 03
       11 -56 -17 -2 -45 23 -2 -14 -14 -9 -39 -107 -11 -7 -100 3
0000c0 3c c6 ea 12 3c ea b4 f5 f0 d3 d8 f6 1b 11 c8 f8
       60 -58 -22 18 60 -22 -76 -11 -16 -45 -40 -10 27 17 -56 -8
0000d0 67 c0 ec da e7 0a f9 ef 1e e5 29 b9 ec 7f 2e f9
       103 -64 -20 -38 -25 10 -7 -17 30 -27 41 -71 -20 127 46 -7
0000e0 ef fd 10 d9 f4 0f 02 13 32 fa 17 fc 29 d1 08 2a
       -17 -3 16 -39 -12 15 2 19 50 -6 23 -4 41 -47 8 42
0000f0 41 0d ea c5 1d f6 13 12 1c 22 d8 ea 03 e5 01 3c
       65 13 -22 -59 29 -10 19 18 28 34 -40 -22 3 -27 1 60

Conv2D_9/merged_input i1 [128, 1, 1, 128]
000000 07 f2 f4 07 02 22 de e1 06 df 15 22 06 c7 c5 d8
       7 -14 -12 7 2 34 -34 -31 6 -33 21 34 6 -57 -59 -40
000010 04 ee c9 bf 29 0d ec fb 01 dc 09 db 04 15 04 00
       4 -18 -55 -65 41 13 -20 -5 1 -36 9 -37 4 21 4 0
000020 13 27 d0 dc 1c fa 08 ec 1b e6 19 f7 e6 ce cc 01
       19 39 -48 -36 28 -6 8 -20 27 -26 25 -9 -26 -50 -52 1
000030 d9 e1 25 ea 14 1c d4 1e f2 db 06 da 00 81 ec fd
       -39 -31 37 -22 20 28 -44 30 -14 -37 6 -38 0 -127 -20 -3
000040 32 ea f7 d0 d8 f1 1c 13 e3 d4 fd 02 dc c6 cc d8
       50 -22 -9 -48 -40 -15 28 19 -29 -44 -3 2 -36 -58 -52 -40
000050 1f 44 de 1a 11 2e a6 e0 29 e0 6b fb dc 13 1a 16
       31 68 -34 26 17 46 -90 -32 41 -32 107 -5 -36 19 26 22
000060 03 bd c3 c9 02 fd fb eb 19 03 da 0c be da 05 ee
       3 -67 -61 -55 2 -3 -5 -21 25 3 -38 12 -66 -38 5 -18
000070 c1 aa e3 06 f8 32 f3 ee ea c5 0d 4c ea f3 0a 40
       -63 -86 -29 6 -8 50 -13 -18 -22 -59 13 76 -22 -13 10 64
000080 0b fe df 1f e0 f2 03 fb 0d b9 b6 43 2a b8 20 f4
       11 -2 -33 31 -32 -14 3 -5 13 -71 -74 67 42 -72 32 -12
000090 ed e7 d3 dd 11 f3 3d dd 30 95 ed 7f d4 39 ed c9
       -19 -25 -45 -35 17 -13 61 -35 48 -107 -19 127 -44 57 -19 -55
0000a0 d9 a5 2e 39 ee 1b 2d ed 0f 17 04 f0 dc 11 d1 bc
       -39 -91 46 57 -18 27 45 -19 15 23 4 -16 -36 17 -47 -68
0000b0 db 07 ea 00 ca ee e3 c3 f2 9f bc 2a 15 17 e7 06
       -37 7 -22 0 -54 -18 -29 -61 -14 -97 -68 42 21 23 -25 6
0000c0 e1 c9 1d 33 4f 23 03 e6 c4 33 26 1a e5 3c b6 1a
       -31 -55 29 51 79 35 3 -26 -60 51 38 26 -27 60 -74 26
0000d0 ff d9 13 d5 11 eb 0d e8 01 09 dd 01 4b 2c 0e e9
       -1 -39 19 -43 17 -21 13 -24 1 9 -35 1 75 44 14 -23
0000e0 f8 af b1 e9 cd f6 61 3c bf f1 d4 09 b7 c1 5c fc
       -8 -81 -79 -23 -51 -10 97 60 -65 -15 -44 9 -73 -63 92 -4
0000f0 c4 f5 16 49 0b 0c 09 fe da f2 35 d8 24 e3 b2 f3
       -60 -11 22 73 11 12 9 -2 -38 -14 53 -40 36 -29 -78 -13
