facedetect-arm-linux/gpu版本/20220425/faceantispoof_h128_w128_c3_epoch231.tflite (tflite, 344784 bytes, 80 tensors)

blaze_face_tf/double_block__v0_3/conv2d_59/conv2d_60/BiasAdd;blaze_face_tf/double_block__v2/conv2d_29/conv2d_30/Conv2D;blaze_face_tf/double_block__v0_3/conv2d_59/conv2d_60/Conv2D;blaze_face_tf/double_block__v0_3/conv2d_59/conv2d_60/BiasAdd/ReadVariableOp/resource f4 [96]
000000 9e a3 1b bf 7c c0 91 bf dc 7a 6b bf ad e0 48 bf
       -0.60796535 -1.1386867 -0.91984344 -0.7846783
000010 99 74 36 bf c0 77 63 bf 83 3b 0d bf 34 1c 95 bf
       -0.71271664 -0.888546 -0.5516893 -1.1649232
000020 27 36 e4 be 39 6c 98 bf 2a 2d 57 bf 06 a8 cd bf
       -0.44572565 -1.1908027 -0.8405329 -1.6066902
000030 20 7d 27 bf cf 6d 43 bf e5 1d fe be ba 8c 31 bf
       -0.654253 -0.7633943 -0.49632183 -0.69355357
000040 24 9a 29 bf 0c 8e 71 bf 6b 07 8a bf 5a 4d 9f bf
       -0.66250825 -0.9435737 -1.0783514 -1.2445481
000050 2d 18 3b bf 0c ba da be 0e 8c fa be 04 88 9a bf
       -0.73083764 -0.42720068 -0.48934978 -1.2072759
000060 b0 e8 6c bf 6f 63 ef be cb d9 5f bf 50 f8 62 bf
       -0.9254255 -0.4675555 -0.874417 -0.88660145
000070 1c 73 ef bf ab c4 31 bf a1 4c 7d bf 58 c3 47 bf
       -1.8707004 -0.69440717 -0.9894505 -0.78032446
000080 b6 71 a4 bf c9 d1 7f bf 97 62 26 bf a6 83 25 bf
       -1.2847202 -0.9992948 -0.64994186 -0.64654005
000090 06 a7 cb be 03 64 d9 be 94 46 d3 bf f5 4c d9 bf
       -0.39775866 -0.42459115 -1.6505914 -1.697661
0000a0 e6 73 11 bf 2c 3a 4a be 6d 3f 52 bf 09 87 1a bf
       -0.5681747 -0.19748753 -0.8212803 -0.603623
0000b0 31 b5 ea bf 28 9e 16 bf 02 41 59 bf 52 cd 6b bf
       -1.8336545 -0.5883508 -0.8486482 -0.9211017
0000c0 ee 2a 22 bf c4 6c a4 bf a4 e4 c0 bf 12 ab b4 bf
       -0.63346756 -1.2845693 -1.5069776 -1.4114707
0000d0 38 a4 63 bf 13 38 68 bf 68 78 06 bf 40 f4 7e bf
       -0.8892245 -0.9071056 -0.52527475 -0.99591446
0000e0 d2 2d 58 bf 9a 7b 10 bf 10 41 d3 bf cd 9d 42 bf
       -0.84444916 -0.564386 -1.650423 -0.76022035
0000f0 7b f6 2d bf 4a 88 74 bf 98 bb 24 bf e4 b0 1a bf
       -0.67954224 -0.9552046 -0.64348745 -0.60426164
000100 3d f6 1f bf 79 b5 87 bf 0d 12 8f bf b4 6f e8 bf
       -0.62485105 -1.0602256 -1.1177384 -1.8159089
000110 28 63 97 bf 42 13 21 bf 74 85 86 bf 1b 35 91 bf
       -1.1827135 -0.6292001 -1.0509477 -1.1344332
000120 3b 82 cf bf bc 1b d3 bf 2d df f2 bf 41 a8 10 c0
       -1.6211618 -1.6492839 -1.8974358 -2.2602694
000130 c4 b7 13 bf 7f f9 b1 bf 4f 52 01 bf 90 db 30 bf
       -0.5770228 -1.3904265 -0.5051622 -0.69085026
000140 cc df 21 bf 18 75 3d bf 9e d8 cc bf c5 38 d5 bf
       -0.6323211 -0.74006796 -1.6003606 -1.665795
000150 69 fa 8b bf 6a 43 31 bf d2 7e 54 bf ae 0b 48 bf
       -1.0935794 -0.6924349 -0.8300601 -0.7814282
000160 92 af 61 bf 54 47 00 bf 2f 0f ab bf 3f 59 98 bf
       -0.88158524 -0.5010884 -1.3364009 -1.1902236
000170 46 e1 2e bf f3 b9 4f bf 9f 9c 0e bf b5 d0 80 bf
       -0.6831249 -0.8114311 -0.55707735 -1.0063692

blaze_face_tf/double_block__v0_3/conv2d_58/depthwise_conv2d_18/BiasAdd;blaze_face_tf/conv2d__relu/conv2d_4/conv2d_5/Conv2D;blaze_face_tf/double_block__v0_3/conv2d_58/depthwise_conv2d_18/depthwise;blaze_face_tf/double_block__v0_3/conv2d_58/depthwise_conv2d_18/BiasAdd/ReadVariableOp/resource f4 [24]
000000 ed 83 a6 be c4 75 29 be b0 c9 ab be e7 06 83 bd
       -0.32522526 -0.1654883 -0.33552313 -0.06397801
000010 54 b8 97 3d 48 93 f4 be c0 60 fa 3e 1c d0 38 3e
       0.07408205 -0.47768617 0.4890194 0.18048137
000020 86 9f d9 3f f0 af c3 be 99 57 04 bf 3e ad 21 3c
       1.7001808 -0.38220167 -0.51696163 0.009867964
000030 50 75 7a 3d 6c 06 0c 3f 50 e9 15 be bc 04 c1 3e
       0.061147034 0.546973 -0.14639783 0.37698925
000040 c8 7a b4 3e 66 27 b4 3e b4 77 2a 3f e4 ae 8f bf
       0.35249925 0.3518631 0.665889 -1.1225247
000050 a2 6f 01 bf a8 b7 68 3f 5d db 8c bf 18 12 6b 3e
       -0.50560963 0.9090524 -1.1004444 0.22956121

blaze_face_tf/double_block__v0_3/conv2d_56/conv2d_57/BiasAdd;blaze_face_tf/conv2d__relu/conv2d_4/conv2d_5/Conv2D;blaze_face_tf/double_block__v0_3/conv2d_56/conv2d_57/Conv2D;blaze_face_tf/double_block__v0_3/conv2d_56/conv2d_57/BiasAdd/ReadVariableOp/resource f4 [24]
000000 98 74 2f bf b6 c4 72 3e 29 85 72 bf 4c 78 96 bf
       -0.6853728 0.23707852 -0.94734436 -1.1755462
000010 50 ad 2d bf a1 a8 5c bf ed 23 0e 3d 34 47 d5 be
       -0.6784258 -0.8619481 0.03470223 -0.41655886
000020 a7 51 20 bf b8 ab 91 bd 66 8b a2 be cd 9f d5 bf
       -0.6262459 -0.07112831 -0.31746978 -1.6689392
000030 d7 9c 1b 3f 71 bf 7a be 9d f0 a7 bf 14 43 95 be
       0.60786194 -0.24487092 -1.3120304 -0.2915274
000040 53 64 5e be 12 9b 0a be 95 10 24 bf 18 0e 71 be
       -0.21717958 -0.13535717 -0.640878 -0.23540533
000050 c1 6a 85 be 07 ed 5a be d1 ee 8d 3f bd 9b ab bd
       -0.2605801 -0.21379481 1.1088506 -0.08379314

blaze_face_tf/double_block__v0_3/conv2d_55/depthwise_conv2d_17/BiasAdd;blaze_face_tf/double_block__v2/conv2d_29/conv2d_30/Conv2D;blaze_face_tf/double_block__v0_3/conv2d_55/depthwise_conv2d_17/depthwise;blaze_face_tf/double_block__v0_3/conv2d_55/depthwise_conv2d_17/BiasAdd/ReadVariableOp/resource f4 [96]
000000 28 48 2f 40 f6 b2 0c bc 1c fd f9 bc a6 53 f6 3c
       2.738779 -0.0085875895 -0.0305162 0.030069184
000010 08 87 b0 3e 34 3c d3 3f a0 33 f7 3f 70 24 8c bc
       0.3447802 1.6502748 1.931263 -0.017107219
000020 cb 67 ac be 32 1d 52 3c f1 f6 54 3d 1c 79 28 bb
       -0.33672938 0.0128243435 0.051993314 -0.0025706952
000030 c9 eb dd bf 9b 9e 0d bf 52 bb 8c 3b 73 31 68 3e
       -1.7337581 -0.5532014 0.0042947913 0.22675113
000040 f3 28 86 bc fb 47 14 bd 43 88 04 3e a1 b5 a8 3e
       -0.016376948 -0.03620146 0.12942605 0.32951072
000050 d8 07 cf 3d 78 b8 b9 bc 73 e0 f3 3b 95 a2 3a bf
       0.10108918 -0.02267097 0.007442528 -0.7290433
000060 4e 97 96 3d 32 ab 04 3f ae 71 19 bd ad ae 2a be
       0.07353078 0.51823723 -0.03746193 -0.16668196
000070 19 bf 5a 3e 6e c3 5f 3e 02 c0 0a 3e 78 d5 98 3c
       0.2136196 0.21851894 0.13549808 0.018656477
000080 1a 4f 77 bf 34 0b 3d 3d 0f 22 cb 3c 76 0e 63 bc
       -0.96605074 0.046153262 0.024796514 -0.013858428
000090 7a 2c 84 3b 86 4e 0d 3f 81 88 b5 be 16 48 26 bd
       0.0040336223 0.5519794 -0.35455707 -0.04059609
0000a0 16 f8 df 3d 36 d7 4a bf 29 eb 60 be 16 37 5e 3c
       0.109359905 -0.79234636 -0.21964706 0.013562938
0000b0 9f 32 31 bc 05 c4 67 bf f6 dc a5 3b 74 95 35 be
       -0.010815292 -0.9053348 0.005061741 -0.17732793
0000c0 bc d4 2f 3e 99 1b 40 3d 00 2e 23 3c 86 30 20 bc
       0.17170995 0.04690132 0.009959698 -0.009777194
0000d0 9c a6 0d 3c 7b 03 60 bf 7b 75 3b bc 8c 59 26 bf
       0.00864568 -0.8750531 -0.011441584 -0.6498039
0000e0 1e 30 62 bc aa ce 2c be 82 2b e6 3e d2 a1 31 be
       -0.013805417 -0.16875711 0.4495507 -0.17346886
0000f0 a6 d3 d5 bd 0c fe 9a 3d d1 f8 91 3e 4a ef 1b bf
       -0.10440759 0.07567987 0.28510144 -0.60912
000100 c7 0c 15 c0 ac b6 a6 3e 3a aa 4f bf be 57 69 bd
       -2.3289049 0.32561243 -0.8111912 -0.056968443
000110 33 9b 06 3c 3a a5 d7 bf 2e 6a ef 3d 76 9c c4 bc
       0.008215713 -1.6847298 0.11690174 -0.024000388
000120 07 3f 47 3e 76 ff bb bd ec ac 43 3e 08 b9 40 bd
       0.19457637 -0.09179585 0.19108933 -0.04705146
000130 43 b5 19 be 28 e7 49 3e 24 c7 1c be b3 4a 87 3d
       -0.15010552 0.19717085 -0.15310341 0.066060446
000140 3f 63 f3 3d 75 cf 87 3e 4f d2 bf 3e 04 dd 81 be
       0.11884164 0.26525465 0.3746514 -0.25363934
000150 90 f1 85 3e 19 59 3d bf 0c 7b 4a bd d0 a9 44 bd
       0.2616086 -0.7396408 -0.049433753 -0.04801351
000160 3c 92 01 3e d1 3b b5 bf 2e 1a d0 3e f7 fe a8 3b
       0.1265344 -1.415888 0.40644974 0.0051573473
000170 32 80 c9 3d dc b7 7c bd a7 2c 14 bd 7c 66 d9 be
       0.098389044 -0.06169878 -0.036175396 -0.42461002

blaze_face_tf/double_block__v0_2/conv2d_53/conv2d_54/BiasAdd;blaze_face_tf/double_block__v2/conv2d_29/conv2d_30/Conv2D;blaze_face_tf/double_block__v0_2/conv2d_53/conv2d_54/Conv2D;blaze_face_tf/double_block__v0_2/conv2d_53/conv2d_54/BiasAdd/ReadVariableOp/resource f4 [96]
000000 b7 ed 48 be 97 d6 8d bf 1e c4 76 bf 7c 39 1a bf
       -0.19621931 -1.1081113 -0.96393 -0.60243964
000010 6b ba 1a bf 64 34 0b bf 8b c4 38 bf 40 86 4f bf
       -0.604407 -0.54376817 -0.721749 -0.81064224
000020 64 13 50 bf 20 46 82 bf 0e 0e 23 bf ed 1f e5 be
       -0.8127959 -1.017765 -0.6369332 -0.4475092
000030 98 36 54 bf a4 ca 36 bf 47 3a 17 bf 1f c4 72 bf
       -0.82895803 -0.71402955 -0.590733 -0.9483051
000040 0a 28 28 bf e5 0e 90 bf 93 be 16 bf 2c 21 a2 be
       -0.65686095 -1.1254545 -0.58884543 -0.31665933
000050 23 51 25 bf 97 10 0a bf e4 0c c4 be 51 e4 f9 be
       -0.6457693 -0.53931564 -0.38291085 -0.48807004
000060 8d a0 40 bf 43 a2 3e bf 8e 3d a5 bf 34 db 26 bf
       -0.7524498 -0.7446634 -1.290941 -0.6517823
000070 4b f6 91 bf af 38 1d bf 31 7c 4a bf 1e 0c 15 bf
       -1.1403288 -0.6141462 -0.7909575 -0.58221614
000080 75 79 07 bf 00 d1 21 bf d3 98 2d bf b2 9b 6f bf
       -0.52919704 -0.63209534 -0.67811316 -0.9359695
000090 50 b6 31 bf 12 a1 ce be ab d9 0c bf 6e 3c 71 bf
       -0.6941881 -0.40357262 -0.55019635 -0.94232833
0000a0 2c af 28 bf e4 c1 19 bf b0 bb 05 bf f5 9f 32 bf
       -0.6589229 -0.6006148 -0.52239513 -0.69775325
0000b0 81 a9 9f bf ef 1d 10 bf 4d 7f 15 c0 72 12 8f bf
       -1.2473603 -0.56295675 -2.3358948 -1.1177504
0000c0 0d 02 0d bf 4e f6 57 bf 79 e5 b8 bf 71 20 8d bf
       -0.55081254 -0.84360206 -1.444503 -1.1025525
0000d0 98 bc 7c bf 01 52 5c bf 92 66 20 bf 56 bc ed be
       -0.9872527 -0.8606263 -0.6265651 -0.4643275
0000e0 c1 b0 52 bf 0d f8 1e bf a6 85 6a bf b0 7f 3c bf
       -0.82300955 -0.62097245 -0.9161018 -0.73632336
0000f0 53 20 03 bf 86 d1 6e bf d7 ea eb be b1 b3 2a bf
       -0.512212 -0.9328846 -0.46077606 -0.6668044
000100 a6 2b 16 be 03 eb 1b bf 77 21 35 be e2 cb f2 be
       -0.14665088 -0.60905474 -0.17688547 -0.47421175
000110 17 08 c4 bf af 36 98 be 56 b4 3a bf a8 d1 83 bf
       -1.5314969 -0.2972922 -0.7293142 -1.0298357
000120 0b 0b 02 bf c9 9b 21 bf 48 90 60 bf 4c f9 d3 bf
       -0.507981 -0.63128334 -0.87720156 -1.6560454
000130 66 f4 32 bf 9d e5 02 bf 9c 4c 0c bf 22 a7 08 bf
       -0.6990417 -0.5113161 -0.54804397 -0.53380024
000140 53 92 10 bf 90 c7 85 be cf 36 c7 be 7c 50 78 bf
       -0.56473273 -0.26128817 -0.38909003 -0.9699781
000150 78 08 1e bf b4 51 70 bf 0f 75 70 bf c7 93 43 bf
       -0.6173167 -0.9387467 -0.9392862 -0.76397365
000160 ac a6 33 bf 3f f3 cd be 70 2a 2d bf c3 46 48 bf
       -0.70176196 -0.40224645 -0.6764288 -0.78232974
000170 fd 4a 31 bf dd 4a f5 be 7f 6a de be 12 85 22 bf
       -0.6925505 -0.4790868 -0.43440625 -0.634843

blaze_face_tf/double_block__v0_2/conv2d_52/depthwise_conv2d_16/BiasAdd;blaze_face_tf/conv2d__relu/conv2d_4/conv2d_5/Conv2D;blaze_face_tf/double_block__v0_2/conv2d_52/depthwise_conv2d_16/depthwise;blaze_face_tf/double_block__v0_2/conv2d_52/depthwise_conv2d_16/BiasAdd/ReadVariableOp/resource f4 [24]
000000 0d 6c 2e 3f 50 d1 8c 3e 57 78 bf 3d d5 7d 1b 3f
       0.6813362 0.27503443 0.09349125 0.6073888
000010 04 03 25 bf 14 9c 0c 3f 2e 68 86 be 80 00 27 bf
       -0.64457726 0.54925656 -0.26251358 -0.6523514
000020 c6 dd 77 bf e2 1f e2 3e 41 dc 20 3c a6 fe 45 3e
       -0.96822774 0.4416495 0.009818138 0.19335422
000030 cb 6e 10 bf 46 eb 0c bf 48 e8 de 3e b1 c2 98 be
       -0.56419057 -0.550465 0.43536592 -0.29836038
000040 3b 2e 83 3f 93 07 5d be fb 8d 3a 3f 7b a4 77 3f
       1.0248483 -0.2158492 0.72872895 0.9673535
000050 b4 54 0e 3d 45 b2 0e be 47 61 e0 bf c5 0f 5d be
       0.034748748 -0.13935192 -1.7529687 -0.21588047

blaze_face_tf/double_block__v0_2/conv2d_50/conv2d_51/BiasAdd;blaze_face_tf/conv2d__relu/conv2d_4/conv2d_5/Conv2D;blaze_face_tf/double_block__v0_2/conv2d_50/conv2d_51/Conv2D;blaze_face_tf/double_block__v0_2/conv2d_50/conv2d_51/BiasAdd/ReadVariableOp/resource f4 [24]
000000 70 0e 9d 3e 31 2d 1f 3e e8 ae 67 3e b8 77 0e be
       0.30675077 0.15544583 0.22625315 -0.13912857
000010 4e 47 00 bf 60 72 80 be 9d 04 91 be 76 c2 e7 be
       -0.501088 -0.2508726 -0.28323832 -0.4526555
000020 8a 2c d6 3e 41 69 5e 3f 1a 25 26 bf 14 e8 b4 3e
       0.41830856 0.86879355 -0.6490036 0.35333312
000030 01 97 11 3f 18 de c9 3d 84 7a 0f 3f 56 89 a6 bc
       0.5687104 0.09856814 0.5604632 -0.020329159
000040 80 60 86 3e c2 51 24 bf 2b 59 2f 3e b7 2f 15 bf
       0.262455 -0.6418725 0.17123859 -0.5827593
000050 57 05 16 3f 9c 93 3b bf c0 af 8e be d9 b4 fe 3e
       0.586019 -0.7327211 -0.27868462 0.4974735

blaze_face_tf/double_block__v0_2/conv2d_49/depthwise_conv2d_15/BiasAdd;blaze_face_tf/double_block__v2/conv2d_29/conv2d_30/Conv2D;blaze_face_tf/double_block__v0_2/conv2d_49/depthwise_conv2d_15/depthwise;blaze_face_tf/double_block__v0_2/conv2d_49/depthwise_conv2d_15/BiasAdd/ReadVariableOp/resource f4 [96]
000000 95 62 4a bb 4d 98 87 3e 8f 44 47 bf a6 5a b5 3d
       -0.0030881513 0.26483384 -0.7783899 0.088551804
000010 67 19 18 bf 53 2c b3 bf 0c 18 4d bf a7 fa 81 3d
       -0.5941376 -1.3997902 -0.8011482 0.06346636
000020 a1 58 17 bf 12 c5 75 3d fc a4 12 3f f2 c6 b6 3e
       -0.5911961 0.060002394 0.57282996 0.35698658
000030 fc 1b ec 3d 1c c3 6c 3c 64 c8 0f bc 66 1a f2 3e
       0.11528775 0.014450815 -0.008775804 0.47285765
000040 74 db 05 3f b3 e3 c6 3c fb 37 d8 be 8c d0 b2 be
       0.52287984 0.024278497 -0.4223021 -0.34924734
000050 30 72 3e bf 29 05 64 be ba 2a 8b 3e 76 e7 00 bf
       -0.74392986 -0.22267593 0.27181035 -0.5035318
000060 b6 aa 6e bf f4 5a 3d 3e 4c 29 06 bf a8 49 c8 bf
       -0.93229234 0.18491727 -0.52406764 -1.5647478
000070 fb 0c 5e 3f f7 ec 2d 3d 81 85 bd be c7 91 8b 3b
       0.86738557 0.042462315 -0.37015918 0.0042593214
000080 b5 b6 6d bf 00 be 83 3f 46 cf aa bf 7c 08 77 3b
       -0.92856914 1.0292358 -1.3344505 0.0037694266
000090 1e 83 a5 3c 6d a3 a0 bd 22 5a 16 be 51 f5 b4 bd
       0.020204123 -0.07843671 -0.1468282 -0.08835853
0000a0 f4 14 fb bc ed df ab 3d bc 7f 6f be 32 c2 17 be
       -0.03064964 0.0839232 -0.2338857 -0.14820173
0000b0 3c 63 85 3f cb 7a 98 3e 6a a4 21 3e 86 64 a9 be
       1.0420909 0.29781184 0.15785375 -0.33084506
0000c0 e0 64 f3 bd c5 26 d5 3d 1a e8 bf 3d 1b 0f 0c 3c
       -0.11884475 0.10407785 0.09370442 0.008548523
0000d0 ab 31 3d bf 0a 49 91 bf a1 1b a5 3c 03 ee be bf
       -0.7390391 -1.1350415 0.020154776 -1.4916385
0000e0 b1 f8 d3 bd 98 b6 1a bf ea 8e b4 3f 88 9c 82 bf
       -0.103501685 -0.60434866 1.4106114 -1.020402
0000f0 a5 7e 4e be 84 a0 c7 be bb e0 56 bf 20 12 7a 3f
       -0.20165499 -0.3898965 -0.8393666 0.97683907
000100 e9 70 08 3f 97 af db 3e f9 63 19 3f 84 44 29 be
       0.5329729 0.42907402 0.5991817 -0.16530043
000110 2f ab 07 bf a8 46 84 bc 2a ea b6 3f cb 67 40 3d
       -0.5299558 -0.016146973 1.4290211 0.046973985
000120 2d a1 70 bf 9f 0d d6 bd 51 bc bf 3e 2a 08 5e 3e
       -0.93995935 -0.10451817 0.37448362 0.21682802
000130 e9 d7 00 be 0d 42 34 3e 4a 2e 1f bd 32 95 00 bf
       -0.12582363 0.17603321 -0.038862504 -0.50227654
000140 ce be 8f 3f f3 81 3b 3d c3 31 4d 3f 11 fe 79 3e
       1.1230104 0.045778226 0.80154055 0.24413325
000150 27 fc 71 bd 1e db ab 3d 4c 45 9b bd 93 93 c8 3e
       -0.05907836 0.08391403 -0.07581577 0.3917509
000160 52 27 3c be fc fc 7d bf 58 7b 2c 3b a8 87 18 3e
       -0.18374375 -0.9921415 0.0026318636 0.14895499
000170 d7 53 1d be 73 94 15 bf 65 a4 2a bf 90 d8 a6 be
       -0.15364014 -0.5842964 -0.66657096 -0.325871

blaze_face_tf/double_block__v1/conv2d_47/conv2d_48/BiasAdd;blaze_face_tf/double_block__v2/conv2d_29/conv2d_30/Conv2D;blaze_face_tf/double_block__v1/conv2d_47/conv2d_48/Conv2D;blaze_face_tf/double_block__v1/conv2d_47/conv2d_48/BiasAdd/ReadVariableOp/resource f4 [96]
000000 61 72 7c be 41 cb 22 bf 19 53 c8 be f5 ad 9a be
       -0.24653007 -0.6359139 -0.39125898 -0.30210844
000010 37 57 31 bf 57 78 23 bf 67 76 3b bf cd a0 4a bf
       -0.69273704 -0.638555 -0.7322754 -0.7915161
000020 96 46 83 bf 0f 95 7b bf a4 0b 1d bf 8f 43 04 bf
       -1.0255916 -0.9827432 -0.6134589 -0.51665586
000030 b2 d2 8a bf bd 2e 0a bf 5b a4 7c bf 71 0f 14 bf
       -1.0845549 -0.53977567 -0.98688287 -0.5783606
000040 19 d5 00 bf 8f d1 93 bf 1b b1 8d bf 1b e4 78 be
       -0.5032516 -1.1548327 -1.1069673 -0.24305765
000050 01 19 c4 be df 21 b1 be 4b f4 9f bf 92 5c c7 be
       -0.38300326 -0.34596154 -1.2496427 -0.38937813
000060 78 a4 e3 be a7 a2 e2 be b3 fc d9 be 8b 82 b2 be
       -0.44461417 -0.4426472 -0.42575607 -0.3486522
000070 b5 e5 0f bf 78 27 f7 be 3e 05 16 bf 38 d0 ad be
       -0.5620988 -0.482723 -0.5860175 -0.3394792
000080 94 5d 1d bf a5 e8 4a bf e5 d0 08 bf 26 6d 8d bf
       -0.61470914 -0.7926124 -0.5344375 -1.1048934
000090 97 85 bd bf 53 2f 11 bf 65 7b 27 bf 60 fb 61 bf
       -1.4806393 -0.56712836 -0.6542266 -0.8827419
0000a0 99 64 18 bf 7f 9d aa bf 6e e2 33 bf 61 d4 73 bf
       -0.595285 -1.3329314 -0.7026738 -0.9524594
0000b0 c6 21 1c bf 0d 47 b6 be 9b f7 d0 bf 01 cb 03 bf
       -0.60989034 -0.35601082 -1.6325563 -0.51481634
0000c0 ce 52 dc be 29 7b 4c bf 1e 14 b5 bf cf 95 88 bf
       -0.43031925 -0.7987543 -1.4146764 -1.0670718
0000d0 ba 4d c2 be a5 d8 20 bf f5 99 8b bf e9 52 8f be
       -0.37949926 -0.62830573 -1.0906359 -0.27992943
0000e0 da 81 54 bf dd e6 be be 02 ed 0a bf fd 6f 55 bf
       -0.8301064 -0.3728551 -0.54267895 -0.83374006
0000f0 f0 f0 39 bf ea c0 1b bf bb 66 50 bf 50 47 de be
       -0.72633266 -0.6084124 -0.81406754 -0.43413782
000100 94 7a 90 be 16 c2 48 bf 04 23 77 be 63 f9 5a bf
       -0.2821852 -0.7842115 -0.24134451 -0.85536784
000110 cc 4a 1c bf 87 44 3f bf 6b 57 b7 be f5 61 e6 be
       -0.6105163 -0.7471394 -0.35808882 -0.4499661
000120 04 4d ef be 38 f8 a1 bf 76 c9 e9 bc 36 fa 51 bf
       -0.46738446 -1.2653875 -0.028538447 -0.82022417
000130 4b 33 b9 be 5c 7e 33 bf 31 e9 03 bf 68 23 48 bf
       -0.36171946 -0.70114684 -0.51527697 -0.78179026
000140 d9 31 e3 be 37 04 c4 bf c9 53 13 bf 95 9b 89 bf
       -0.44373968 -1.5313786 -0.5754972 -1.0750605
000150 43 b5 73 bf 23 bd 7b be 1f 5e 80 bf 29 ec 2e bf
       -0.9519846 -0.24583869 -1.0028723 -0.683291
000160 b8 71 7a bf 19 94 31 bf 0a 18 89 bf d3 70 95 bf
       -0.9782977 -0.69366604 -1.0710461 -1.1675056
000170 e6 58 46 bf f1 f3 b4 be 27 df b5 be f0 18 d6 be
       -0.774794 -0.35342363 -0.35521814 -0.418159

blaze_face_tf/double_block__v1/conv2d_46/depthwise_conv2d_14/BiasAdd;blaze_face_tf/conv2d__relu/conv2d_4/conv2d_5/Conv2D;blaze_face_tf/double_block__v1/conv2d_46/depthwise_conv2d_14/depthwise;blaze_face_tf/double_block__v1/conv2d_46/depthwise_conv2d_14/BiasAdd/ReadVariableOp/resource f4 [24]
000000 d0 8d ad bf 4c f5 81 bf 18 de ae 3e ff 31 06 3f
       -1.3558903 -1.0152984 0.3415382 0.5242004
000010 16 14 5c 3e 9a 77 13 3f 57 9b 45 3f b8 f4 9b 3f
       0.21492037 0.5760437 0.77190155 1.2184057
000020 15 8c 13 3e b1 d4 16 be d9 f0 c5 3e 39 23 10 bf
       0.14408906 -0.14729573 0.38660315 -0.56303746
000030 34 ba cc bb ef 3b 5b be 34 bd d3 3e ea e8 97 3e
       -0.006247783 -0.21409582 0.41355288 0.29669887
000040 46 54 ac 3e f3 5a 3c 3f b8 cd 18 3f 79 cc 21 be
       0.33658046 0.7357628 0.596889 -0.15800656
000050 4c fd 05 bf 78 8a 98 3e 52 8c d9 3d 7e 34 26 3f
       -0.52339625 0.29793143 0.10622467 0.64923847

blaze_face_tf/double_block__v1/conv2d_44/conv2d_45/BiasAdd;blaze_face_tf/conv2d__relu/conv2d_4/conv2d_5/Conv2D;blaze_face_tf/double_block__v1/conv2d_44/conv2d_45/Conv2D;blaze_face_tf/double_block__v1/conv2d_44/conv2d_45/BiasAdd/ReadVariableOp/resource f4 [24]
000000 a7 8c f6 3e 95 77 36 be 0b c0 b1 3e 1a 16 0c 3f
       0.48154184 -0.17819054 0.3471683 0.54721224
000010 48 99 50 bf 87 25 fd 3e aa 6a d5 bd 56 11 3b 3f
       -0.8148389 0.49442694 -0.10420735 0.7307333
000020 f1 81 8f 3e fe 79 93 3d 4a 13 9b 3d 10 50 b3 3e
       0.28028825 0.072010025 0.075720385 0.3502202
000030 53 20 2b bf 38 7c e5 3e f1 e6 15 3e 80 d9 6c bf
       -0.668462 0.44821334 0.14638878 -0.9251938
000040 9b ac dc 3e 1e a2 24 3f 2f 10 03 3f cd d1 20 bf
       0.43100438 0.6430987 0.5119657 -0.6282013
000050 65 26 4e 3f 4b f6 a2 3e 8e 7b aa 3e 20 cc 7b 3e
       0.80527335 0.31828532 0.3329739 0.24589586

blaze_face_tf/double_block__v1/conv2d_43/depthwise_conv2d_13/BiasAdd;blaze_face_tf/double_block__v2/conv2d_29/conv2d_30/Conv2D;blaze_face_tf/double_block__v1/conv2d_43/depthwise_conv2d_13/depthwise;blaze_face_tf/double_block__v1/conv2d_43/depthwise_conv2d_13/BiasAdd/ReadVariableOp/resource f4 [96]
000000 b3 30 68 3f fe 24 11 bf 55 41 f1 be 52 43 e6 3b
       0.9069931 -0.5669707 -0.47120157 0.007027068
000010 4a 85 a0 bf 1b bf 49 bf 9e c1 5b 3e c0 29 c4 be
       -1.2540677 -0.7880723 0.21460578 -0.38313103
000020 f3 c6 01 bf 27 f4 4a 3d 63 1c 95 be dc 88 07 3e
       -0.506942 0.049549248 -0.2912322 0.13235801
000030 be dc 7e 3e 08 11 55 3e c7 07 1f 3e 6b 8a 68 3e
       0.24888894 0.20807278 0.1553031 0.22709052
000040 ce 98 ff 3e 89 27 9c bc 8a 0b 5c bf 71 86 4c 3f
       0.49921268 -0.01906182 -0.8595511 0.7989264
000050 f3 0d 00 bf c0 02 9c 3e e6 77 40 3f e0 b0 9e 3e
       -0.50021285 0.30470848 0.7518295 0.3099432
000060 8a 48 cc bf 02 e1 b5 3c 0d f2 c6 3e ba 4c 9e bf
       -1.5959637 0.022202019 0.38856545 -1.2367165
000070 71 5a 8a 3f a5 e9 ff be 2c 5a 37 3f 58 c8 34 3b
       1.080885 -0.49982944 0.71621966 0.0027585234
000080 76 1f c5 3f 97 28 b7 be 17 4d 6b 3f 68 18 81 3a
       1.5400226 -0.35773155 0.91914505 0.0009849193
000090 4d f9 0f bf 11 cc a7 3e 2a 06 41 bf d1 ee bd 3e
       -0.5623978 0.32772878 -0.7540003 0.37096265
0000a0 0d 75 31 bf 65 81 b4 be 48 ba e1 be 55 61 85 3b
       -0.6931923 -0.3525497 -0.44087434 0.004070441
0000b0 26 ae a1 3f de 99 c4 bd 47 80 bd 3e 24 54 33 3e
       1.2631271 -0.0959966 0.3701193 0.17512566
0000c0 dc 22 48 3e 9f 16 0b bf be 3e 5c 3b 78 ab d6 3d
       0.19544548 -0.5433139 0.0033606733 0.10481924
0000d0 e8 3a 46 3e 07 d4 03 bf 8a 57 ff 3b d1 b6 5c 3f
       0.19358408 -0.51495403 0.007792418 0.86216456
0000e0 62 08 ac 3d ac 54 57 3f e7 34 01 3e 31 66 1d bd
       0.084000364 0.84113574 0.12617837 -0.038427535
0000f0 40 06 60 be 42 d0 e5 3d 08 35 84 3e f4 b0 90 3f
       -0.21877384 0.11221363 0.2582171 1.1304002
000100 0a ef 7a bf 2d c8 e5 be a0 45 ab bf ff 98 45 bd
       -0.98020995 -0.44879285 -1.3380623 -0.04824161
000110 e5 8d 71 be 46 8e b2 3d 40 70 92 3e 30 b1 01 3f
       -0.23589285 0.08718543 0.28601265 0.5066099
000120 45 87 21 bf 7d 20 05 3f e0 b6 fc be 8f dd 94 3e
       -0.6309703 0.520027 -0.49358273 0.29075286
000130 d1 b7 46 3e e4 b5 49 3e 61 87 03 bd d8 b9 0e 3f
       0.19406058 0.19698292 -0.03211153 0.55752325
000140 87 fb 85 3e 18 2b f2 ba df d8 3e 3f e6 01 cb 3d
       0.26168463 -0.0018475978 0.7454967 0.099124715
000150 c4 98 98 3e e8 c1 33 3f 4b c9 5c 3d 2e 83 e2 bd
       0.2980405 0.7021775 0.053902905 -0.11060177
000160 22 c8 25 be 9c 62 27 3f 4b ca 16 3e 32 24 47 3e
       -0.16189626 0.6538484 0.14725606 0.19447401
000170 15 18 03 3d 42 77 03 3f 31 16 aa 3f d4 51 74 be
       0.03200539 0.5135385 1.3288022 -0.2385934

blaze_face_tf/double_block__v0_1/conv2d_41/conv2d_42/BiasAdd;blaze_face_tf/double_block__v2/conv2d_29/conv2d_30/Conv2D;blaze_face_tf/double_block__v0_1/conv2d_41/conv2d_42/Conv2D;blaze_face_tf/double_block__v0_1/conv2d_41/conv2d_42/BiasAdd/ReadVariableOp/resource f4 [96]
000000 08 e5 0b bf ca 42 03 bf 5a 74 d2 be cf a7 07 be
       -0.5464635 -0.5127379 -0.41104394 -0.13247608
000010 77 f9 8e be d1 a7 ff be 94 33 28 bf de f2 6f bf
       -0.27924702 -0.4993272 -0.657037 -0.9372996
000020 8e d4 cd be 25 28 2d bf 09 cf e0 be 4c 81 01 bf
       -0.4020123 -0.6763938 -0.43907955 -0.50587916
000030 9b 2a 16 bf 8d cc 98 be 30 33 5b bf 66 68 36 bf
       -0.5865876 -0.2984356 -0.8562498 -0.7125305
000040 84 26 2f bf 1a dc e9 be 8d ee cb be 71 35 0c bf
       -0.68418145 -0.45675737 -0.39830437 -0.54769045
000050 22 09 df be ee fd ee be 27 5b 57 bf 0b a9 fd be
       -0.43561655 -0.46678108 -0.8412346 -0.49543032
000060 97 19 d7 be 06 cd cc bd 62 df 6f be 55 94 b9 be
       -0.4201171 -0.100000426 -0.23425058 -0.3624598
000070 86 5a 64 be 44 45 02 bf 4a db 41 bf 28 6d 9e bf
       -0.22300157 -0.5088694 -0.75725234 -1.2377062
000080 46 79 ee be 2c 0e 36 be 60 ba f1 be dd dd 2e bf
       -0.465769 -0.17778844 -0.47212505 -0.68307287
000090 28 ca db be fc ba 40 bf 0b b0 e0 be 06 79 6a bf
       -0.4292767 -0.75285316 -0.4388431 -0.9159092
0000a0 7f 49 8b be 20 dd a2 bf c0 a4 d3 be 7e ea 0f bf
       -0.2720451 -1.2723732 -0.41336632 -0.5621718
0000b0 1a b4 d9 be a5 dc 83 be 05 35 bb bf c1 be 24 bf
       -0.4252022 -0.25754276 -1.4625555 -0.6435357
0000c0 6c 11 d0 bd 2e 80 43 bf c4 d3 b6 bd 64 a0 5e bf
       -0.10159573 -0.7636746 -0.0892711 -0.86963487
0000d0 72 aa 6b be 7f 21 eb be aa 2d 60 bf 65 e7 6a be
       -0.23014238 -0.45923993 -0.8756968 -0.22939833
0000e0 32 90 ef be 4e e7 0c bf 4c e6 53 be 7d 46 31 bf
       -0.467897 -0.5504044 -0.2069332 -0.6924818
0000f0 0b 88 63 bf f5 c7 e3 be 47 70 17 bf 32 32 42 be
       -0.8887946 -0.44488493 -0.59155697 -0.1896446
000100 19 c3 9c be bc 9e 5e be 1e 6c 9a be c8 e4 20 bf
       -0.30617598 -0.2174024 -0.30160612 -0.6284909
000110 1e 8d 66 bf 92 8c 6d bf b3 cf ed be 15 37 89 be
       -0.9005908 -0.9279262 -0.46447524 -0.26799837
000120 45 e5 37 bf 1e 03 3f bf 67 76 36 bf 8e b2 4c bf
       -0.7183421 -0.7461413 -0.7127442 -0.7995995
000130 2a 91 33 bf 2f da 8e bf 1b 9a 30 bf 31 b8 11 bf
       -0.7014338 -1.1160334 -0.68985146 -0.5692168
000140 1b ed e3 be 43 6b 52 bf f2 c0 2f be b8 75 33 bf
       -0.44516835 -0.8219492 -0.17163447 -0.701015
000150 d0 57 1d bf bc c6 bf be 6b 26 69 bf 87 67 42 bf
       -0.61462116 -0.3745631 -0.91074246 -0.7593922
000160 fa 35 29 bf 0e b6 d3 be 48 c1 56 bf e4 ff 70 bf
       -0.66097987 -0.41349834 -0.83888674 -0.9414046
000170 e2 5f 30 bf 2b 34 16 bf 47 96 c2 be 63 cd c7 be
       -0.68896306 -0.5867335 -0.38005278 -0.39023885

blaze_face_tf/double_block__v0_1/conv2d_40/depthwise_conv2d_12/BiasAdd;blaze_face_tf/conv2d__relu/conv2d_4/conv2d_5/Conv2D;blaze_face_tf/double_block__v0_1/conv2d_40/depthwise_conv2d_12/depthwise;blaze_face_tf/double_block__v0_1/conv2d_40/depthwise_conv2d_12/BiasAdd/ReadVariableOp/resource f4 [24]
000000 ad 33 9a 3e 26 bd af 3c e2 cb c4 3f 6e 48 9a bf
       0.3011755 0.021452498 1.537472 -1.2053354
000010 18 45 28 3f b9 76 c4 be 44 4c 42 bf ed fa 3f 3e
       0.6573043 -0.38371828 -0.7589762 0.18748064
000020 a8 c7 a4 be c2 fb 07 3f eb be 06 be 1b 4c d7 be
       -0.32183576 0.53118527 -0.13158767 -0.4205025
000030 3d 84 9e 3f 3f e2 ce 3e 04 e6 3d be da 10 30 bf
       1.2384106 0.40406987 -0.18544775 -0.68775713
000040 3b 43 92 3f 50 83 09 bf 01 7d e2 3d b4 1d 8b 3c
       1.1426767 -0.5371599 0.11058999 0.016981937
000050 6c 8d ef be 46 95 39 be e9 2b a6 3e f3 be 5c bf
       -0.46787584 -0.1812335 0.32455376 -0.86228865

blaze_face_tf/double_block__v0_1/conv2d_38/conv2d_39/BiasAdd;blaze_face_tf/conv2d__relu/conv2d_4/conv2d_5/Conv2D;blaze_face_tf/double_block__v0_1/conv2d_38/conv2d_39/Conv2D;blaze_face_tf/double_block__v0_1/conv2d_38/conv2d_39/BiasAdd/ReadVariableOp/resource f4 [24]
000000 89 93 a0 3e 12 60 5b be 6c bc b1 3d 3f e8 dd 3e
       0.3136256 -0.21423367 0.08678517 0.43341252
000010 37 d3 d1 be 1d 12 54 bf f4 7b 00 3f cf d7 0d bf
       -0.40981457 -0.8284014 0.5018914 -0.5540742
000020 70 07 37 be 20 63 de 3d 17 2e bd be dd 3a 1a bf
       -0.17873931 0.1085875 -0.36949226 -0.6024607
000030 47 72 06 bf e7 60 23 bf 1e 5f 14 3f c8 ab 89 be
       -0.52518123 -0.63819736 0.5795764 -0.2688887
000040 f4 39 94 bd 6f 0a f3 3d 55 7e 33 be 19 9f 00 bf
       -0.07237616 0.118672244 -0.1752866 -0.50242764
000050 50 f4 ab 3d 39 1d f1 bd 01 4b 0c bf e2 68 f4 bc
       0.08396208 -0.11773152 -0.54801947 -0.029835168

blaze_face_tf/double_block__v0_1/conv2d_37/depthwise_conv2d_11/BiasAdd;blaze_face_tf/double_block__v2/conv2d_29/conv2d_30/Conv2D;blaze_face_tf/double_block__v0_1/conv2d_37/depthwise_conv2d_11/depthwise;blaze_face_tf/double_block__v0_1/conv2d_37/depthwise_conv2d_11/BiasAdd/ReadVariableOp/resource f4 [96]
000000 c8 3b 17 3f bb 0b ba 3d 47 d1 12 bf 3c 4b f9 be
       0.59075594 0.09084269 -0.5735058 -0.48690212
000010 23 64 9a be a3 23 df 3e ed d0 00 bf da 9b 68 3e
       -0.30154523 0.43581876 -0.50318795 0.22715703
000020 87 a8 3c 3f 95 a3 af 3e 07 4c b1 3e 0b 48 82 3e
       0.7369465 0.3430449 0.34628317 0.2544559
000030 77 ce 05 3f fe 24 6e bf f8 e7 04 be 19 b0 7b bf
       0.52268165 -0.93025196 -0.12979114 -0.9831558
000040 bb 11 cb bc 57 fa 7a 3e c9 bd c6 be 55 42 43 be
       -0.024788728 0.2450956 -0.3881667 -0.19068272
000050 48 27 b5 bf 01 4e 7d 3e b1 b2 0d 3f d1 06 04 bf
       -1.4152613 0.24736787 0.55350786 -0.515729
000060 44 89 c2 3c a4 68 29 3f 70 d6 e2 be d6 12 f3 be
       0.023747094 0.66175294 -0.44304228 -0.47475308
000070 45 27 14 bf bf 25 55 3e 50 aa 86 bd 96 29 47 3d
       -0.5787242 0.2081518 -0.06575453 0.048623644
000080 33 9d 71 3f 3f 6d 35 3f 4e 21 90 bd 77 93 53 3e
       0.9438049 0.7086982 -0.07037602 0.20661722
000090 08 bd 7a 3e da 95 37 be 62 35 28 3e c5 94 1a 3f
       0.24486172 -0.17928258 0.16426614 0.60383254
0000a0 68 d1 a4 3e 59 44 ff 3d 0e 75 9f bd fa 62 73 3e
       0.32191014 0.12464208 -0.07785998 0.23768225
0000b0 ca b1 4b 3f eb dd 80 bf af a2 ca 3d cc f2 35 be
       0.7956816 -1.0067724 0.09894311 -0.17768401
0000c0 16 70 05 bf f6 44 58 be 65 14 51 be 75 96 20 3e
       -0.52124155 -0.21120057 -0.20417936 0.15682395
0000d0 d0 d5 71 be 60 11 82 bf f6 a8 21 3f 1b 7d bc 3e
       -0.23616719 -1.0161552 0.6314844 0.36814198
0000e0 55 48 a7 3e 08 3c d9 3e 17 c6 9a be 1a c7 05 3f
       0.32672372 0.42428613 -0.30229256 0.5225693
0000f0 ae 0b 85 3e 24 e5 07 3f 50 a2 bd 3e 4d 4e 39 bf
       0.25985473 0.53084016 0.37037897 -0.723851
000100 06 a8 2e 3f be 0c be be 71 54 52 3f 16 5a 38 3e
       0.68225133 -0.37119097 0.821601 0.18003115
000110 1f 50 18 bf 95 89 95 be f4 19 2d 3e f1 30 09 be
       -0.59497255 -0.2920653 0.16904432 -0.13397576
000120 02 66 ef 3d cd 9a 6e 3f 88 60 68 3f fa 08 a7 3e
       0.11689378 0.9320496 0.90772295 0.32624036
000130 f4 e3 fc be ac 39 4c 3d 0f f0 41 be 8f 0c d5 bd
       -0.49392664 0.049859688 -0.18939231 -0.10402786
000140 08 f4 b2 be 21 aa c9 3d 05 28 29 bf 5a e5 66 3c
       -0.34951806 0.09846903 -0.6607669 0.014092768
000150 c0 09 41 3f 1f 72 10 3e ff 65 03 bf b3 a5 b4 be
       0.754055 0.14106034 -0.5132751 -0.35282668
000160 d4 54 07 3f 0a 96 af bf 4c 63 f3 3e 54 9d af bd
       0.5286381 -1.3717663 0.47536695 -0.0857493
000170 29 ae 93 be 4d b7 26 3f 78 36 a2 bf 13 df a7 be
       -0.2884381 0.65123445 -1.2672873 -0.3278738

blaze_face_tf/double_block__v0/conv2d_35/conv2d_36/BiasAdd;blaze_face_tf/double_block__v2/conv2d_29/conv2d_30/Conv2D;blaze_face_tf/double_block__v0/conv2d_35/conv2d_36/Conv2D;blaze_face_tf/double_block__v0/conv2d_35/conv2d_36/BiasAdd/ReadVariableOp/resource f4 [96]
000000 ee 7a 68 bf 9d ce bc be 6c bd 88 be 68 43 d5 be
       -0.90812576 -0.36876383 -0.26707017 -0.4165299
000010 01 4c 2d bd 80 49 c5 be f6 63 f7 be 5c f1 e7 be
       -0.04230881 -0.3853264 -0.48318452 -0.4530133
000020 de fb 7f be 8e 41 27 bf 84 0c 7f be ec 80 23 be
       -0.24998423 -0.65334404 -0.24907118 -0.15967149
000030 93 ec 5c bf b3 21 8d 3e 4c 8a 69 bf b1 81 92 be
       -0.86298484 0.27564773 -0.9122665 -0.28614572
000040 54 46 f2 be df c8 1d bf b4 9a 6f bd 02 ec 0d bf
       -0.4731928 -0.6163463 -0.058497146 -0.55438244
000050 d3 4c 16 be df 15 fb be f0 a3 0e bf fa ba e2 bd
       -0.14677744 -0.49040124 -0.557189 -0.11070819
000060 12 7b 76 be 6f 4a 10 bf bc 3b 07 bf 56 1b 08 bf
       -0.24070385 -0.56363577 -0.5282552 -0.5316671
000070 21 a2 57 be 6a cf 36 bf e7 61 ed bd 2a 60 5f bf
       -0.21057941 -0.7141024 -0.11590939 -0.8725611
000080 ab 24 7e be 2e 57 48 bf 6a a6 b0 bd f3 83 16 bf
       -0.24818675 -0.78258026 -0.08625491 -0.5879509
000090 c5 51 8b bf d8 c3 8f bf 2a 52 53 be 70 6f 32 bf
       -1.0884329 -1.1231642 -0.20636812 -0.6970129
0000a0 b8 a4 18 bf 04 61 85 bf 21 08 3c be b5 33 4f bf
       -0.5962634 -1.0420232 -0.18362476 -0.80938274
0000b0 cb e0 d2 be 0d 31 a6 be e6 d8 89 bf 13 ca 72 bf
       -0.41187128 -0.32459298 -1.0769317 -0.9483959
0000c0 5c 7f ab 3d b4 e5 f5 be e8 37 aa be fe 1b 59 bf
       0.08373901 -0.48026812 -0.33245778 -0.8480834
0000d0 5d 4d 63 be ed 93 a8 be 22 28 3c bf ed 60 66 be
       -0.2219748 -0.32925358 -0.7349874 -0.22497912
0000e0 84 0f 68 bf 78 29 f5 be 00 b5 1a bd a4 17 97 be
       -0.90648675 -0.478832 -0.03777027 -0.29510224
0000f0 82 ce 95 be bf c6 a0 be a2 ec 2b be 2c b5 4a be
       -0.29259115 -0.3140163 -0.16789487 -0.19795674
000100 1d 0b ff bd 41 96 77 be 7c 57 2d be 24 fc 46 be
       -0.124532916 -0.24178411 -0.16927904 -0.19432122
000110 08 c7 95 bf 1f c9 86 bf 98 0b 67 be 5a a5 08 bf
       -1.1701365 -1.0530127 -0.22563016 -0.53377306
000120 15 32 59 be 89 91 59 bf 0b 64 ec be ef 9c 81 bf
       -0.21210511 -0.84987694 -0.46170077 -1.0126017
000130 bd e2 30 bf 00 93 97 be 1f 7d cd be 3d 8f 10 bf
       -0.69095975 -0.2960434 -0.40134522 -0.56468564
000140 9a 33 fd be 50 54 f4 be b8 b7 d5 be 6a 91 1d bf
       -0.4945343 -0.47720575 -0.4174173 -0.6155001
000150 cc 4f 18 bf 68 b1 df bd f1 62 a3 be d6 0d 44 bf
       -0.5949676 -0.109225094 -0.31911424 -0.7658361
000160 b5 44 d2 be 81 8a c6 be c9 12 c1 bf 52 1a 24 bf
       -0.41068044 -0.38777545 -1.5083858 -0.6410266
000170 34 be 5a bf 24 76 f5 be e0 40 1c be c0 bf 12 bf
       -0.85446477 -0.47941697 -0.15259123 -0.5732384

blaze_face_tf/double_block__v0/conv2d_34/depthwise_conv2d_10/BiasAdd;blaze_face_tf/conv2d__relu/conv2d_4/conv2d_5/Conv2D;blaze_face_tf/double_block__v0/conv2d_34/depthwise_conv2d_10/depthwise;blaze_face_tf/double_block__v0/conv2d_34/depthwise_conv2d_10/BiasAdd/ReadVariableOp/resource f4 [24]
000000 73 a5 92 bf 23 05 d3 bf 41 d3 3a bf ca ca c0 bf
       -1.1456741 -1.6485943 -0.729786 -1.5061886
000010 d2 27 7b 3e 41 f8 a0 be bc 10 a1 bd a2 49 2a bf
       0.24526909 -0.31439403 -0.0786452 -0.66518605
000020 ff 0b c4 3f 8e b7 15 bf 72 f3 51 3f b1 5a 50 3f
       1.5316161 -0.5848321 0.82012093 0.81388384
000030 6e a9 4a 3f 6d 08 33 be 37 8b 16 bd fa 44 fc be
       0.7916478 -0.17483683 -0.03675386 -0.49271375
000040 09 cf 27 3e 57 3b 8b 3f e4 8b 5e bf 3d 41 88 3e
       0.16387571 1.0877484 -0.86932206 0.26612273
000050 4c 64 eb be 53 37 60 bf d1 00 bb bf 79 4b 2e 3f
       -0.45974958 -0.8758442 -1.4609624 0.6808391

blaze_face_tf/double_block__v0/conv2d_32/conv2d_33/BiasAdd;blaze_face_tf/conv2d__relu/conv2d_4/conv2d_5/Conv2D;blaze_face_tf/double_block__v0/conv2d_32/conv2d_33/Conv2D;blaze_face_tf/double_block__v0/conv2d_32/conv2d_33/BiasAdd/ReadVariableOp/resource f4 [24]
000000 52 aa e5 3e e0 19 30 bc d5 fa a3 bd d2 8e f6 3c
       0.44856507 -0.010748357 -0.08006827 0.030097399
000010 3a 3a d3 3e f6 ea 01 bf ed 77 02 3e 7d 31 78 3e
       0.4125536 -0.50749147 0.1274106 0.24237628
000020 6a 8f 17 3f 18 77 36 bf 49 9a de be 37 13 bd 3e
       0.5920321 -0.7127547 -0.43477085 0.36928722
000030 fc cc d6 be d6 92 21 bf 22 c8 73 bd 24 9b a6 be
       -0.41953266 -0.6311468 -0.059517033 -0.32540238
000040 9a e8 b8 3d 0a d3 f9 3e 1c 9a 19 3e 36 d0 8d 3e
       0.0902874 0.48793823 0.15000194 0.27697915
000050 ab 42 ca 3e 26 5a 12 bf d5 39 fb 3e f9 e8 05 be
       0.3950399 -0.57168806 0.4906756 -0.13077153

blaze_face_tf/double_block__v0/conv2d_31/depthwise_conv2d_9/BiasAdd;blaze_face_tf/double_block__v2/conv2d_29/conv2d_30/Conv2D;blaze_face_tf/double_block__v0/conv2d_31/depthwise_conv2d_9/depthwise;blaze_face_tf/double_block__v0/conv2d_31/depthwise_conv2d_9/BiasAdd/ReadVariableOp/resource f4 [96]
000000 06 77 2b 3f d0 3a 41 bf cd 37 bc bf 4f 2b fa 3e
       0.6697849 -0.75480366 -1.4704529 0.48861167
000010 d4 a6 c4 3e 99 18 83 3d f0 90 2d 3c e9 1e 7f 3f
       0.3840853 0.06401176 0.010593638 0.9965654
000020 64 89 ea bd 74 6b 0e bf 40 44 8f bf 7b 34 5c bf
       -0.114519864 -0.5563271 -1.1192703 -0.8601758
000030 25 b3 b9 3e 17 ca 57 3f 54 6f 58 3f 89 e6 9f 3e
       0.3626949 0.8429274 0.84544873 0.31230572
000040 00 07 9e bf 6e 78 96 bc cc c6 da 3c 26 03 f2 be
       -1.2345886 -0.018367972 0.026706122 -0.47268027
000050 78 c1 68 3f 86 c9 9a bf 10 73 00 c0 bf 42 1d 3f
       0.9092021 -1.209275 -2.0070229 0.6142997
000060 43 c2 95 3f 8d 54 6a 3f 72 d4 96 be fe 10 80 bf
       1.1699909 0.91535264 -0.29458958 -1.0005186
000070 1c 3a 06 3f fa ba 21 bf 48 7c 0f bf 83 62 df 3e
       0.5243242 -0.6317593 -0.56049013 0.43629846
000080 de 72 51 bf 34 a9 77 bf ab 2a aa be 6a 84 61 3e
       -0.818159 -0.9674256 -0.33235678 0.22023168
000090 af bb ab be 46 c7 9e be 73 31 6a bf 0f 23 1a 3e
       -0.3354163 -0.3101141 -0.91481704 0.15052436
0000a0 84 55 0f 3f b7 14 0a be dc dd 2a bf 05 ad 09 3f
       0.5598986 -0.13484465 -0.6674478 0.5377963
0000b0 36 18 56 3f a8 75 f1 3f 25 a2 e8 3e 41 01 f1 3e
       0.8363069 1.8864031 0.45436206 0.4707127
0000c0 ca 55 37 bf 91 73 28 3e ee 16 aa bb 2c b2 f3 be
       -0.7161528 0.16450335 -0.0051907217 -0.47596872
0000d0 5a 8f 2b bf 9a 6a fd be b3 15 7d 3f a3 54 20 3f
       -0.6701561 -0.49495393 0.98861235 0.62629145
0000e0 e7 0f 9e be 6d b3 80 be db c1 a1 3f 9b 6e 0e c0
       -0.30871508 -0.2513689 1.2637285 -2.2255008
0000f0 fa 0d bc 3e b3 96 b9 be 9f 57 61 bf ac 62 17 bf
       0.36729413 -0.36247787 -0.88024324 -0.59134936
000100 c9 86 75 3f 30 21 fa bd 9b 03 9d 3d c3 97 37 3e
       0.9590879 -0.12213361 0.07666703 0.17928986
000110 f0 f6 f1 bd 76 a4 05 bc 05 a1 8a bf f0 80 a3 3c
       -0.11814678 -0.008156886 -1.0830389 0.019958943
000120 71 35 8f be 92 c4 24 be 35 0c 51 bf 48 5e a0 3e
       -0.2797046 -0.1609061 -0.8165925 0.3132193
000130 11 97 13 bf f6 a2 51 3e c6 af 71 3e 3e 1d 07 3f
       -0.57652384 0.20472321 0.23602208 0.52778995
000140 6a 22 6e 3f 21 10 8f 3e 70 43 ef be 6e d1 41 bf
       0.9302126 0.27941993 -0.46731138 -0.7571019
000150 3c bc 82 be 4a fa fc 3e 4a 77 4f bf 47 d6 6a 3f
       -0.25534236 0.49409705 -0.81041396 0.9173321
000160 85 ea a1 bf 91 e4 9c 3e 08 6c 39 bf 28 f7 98 be
       -1.2649695 0.30643132 -0.7243047 -0.29876065
000170 66 b9 0d 3f 19 29 90 be 45 3f d0 3f 3f 10 99 bf
       0.5536102 -0.28156355 1.6269308 -1.1958083

blaze_face_tf/double_block__v2/conv2d_23/conv2d_24/BiasAdd;blaze_face_tf/double_block__v2/conv2d_29/conv2d_30/Conv2D;blaze_face_tf/double_block__v2/conv2d_23/conv2d_24/Conv2D;blaze_face_tf/double_block__v2/conv2d_23/conv2d_24/BiasAdd/ReadVariableOp/resource f4 [96]
000000 45 59 53 bf c7 02 9d 3e 55 87 3e 3f d3 d2 47 bf
       -0.8255809 0.3066618 0.7442525 -0.7805607
000010 b2 de c1 be 6b 8a 31 bf 14 7d f9 3e b6 a4 96 3e
       -0.37865216 -0.69351834 0.4872824 0.2942254
000020 46 70 a8 3f 09 8c bb bf e6 2f 9d be 85 bc b2 bf
       1.3159263 -1.465211 -0.30700606 -1.3963782
000030 04 1e f5 3f 3e 03 8f bf 84 7a 95 3d f8 16 82 3f
       1.9149785 -1.1172864 0.072987586 1.016326
000040 1b 72 e4 3e 77 e6 26 bf 24 a8 ca 3d c8 10 be 3c
       0.44618306 -0.6519541 0.098953515 0.023201361
000050 b4 75 f4 3e 3f c6 94 3f 96 73 d9 3f 75 5d 19 3c
       0.4774605 1.1623 1.6988399 0.009360661
000060 12 58 79 3f d0 78 b3 be 40 6b 34 3e 9e 3d 86 3f
       0.9740001 -0.3505311 0.17619038 1.0487554
000070 1e 61 77 bf 33 8c f8 bd cd a8 fa 3e c0 4b f8 be
       -0.96632564 -0.12136116 0.4895691 -0.48495293
000080 ec 1e 19 bf 8b f7 dc 3f 51 c5 33 3f 62 39 08 c0
       -0.5981281 1.7263044 0.70222956 -2.1285024
000090 94 ef c4 bf 41 87 b6 bf 8e 14 f4 3e 17 ea 76 3f
       -1.5385613 -1.4260026 0.47671932 0.9645094
0000a0 f6 b2 22 bf b2 08 a9 bf d7 8b d6 be 14 d8 78 bf
       -0.6355432 -1.3205779 -0.41903564 -0.9720471
0000b0 d6 cc 3b 40 ad 3b 83 3f 4a d2 6c bf 68 95 a3 3f
       2.9343772 1.0252587 -0.92508376 1.277997
0000c0 87 f9 6e 3e e4 39 ac 3f d0 3f 24 bf 77 4f 0c bf
       0.23337375 1.3455167 -0.6415987 -0.54808754
0000d0 ed 4f d0 be 7a 8b 96 3f bc f3 40 3f f5 8f c8 bd
       -0.4068598 1.1761315 0.7537191 -0.097930826
0000e0 be d2 ef be b7 c5 98 bf 91 ff 6b bf 80 b3 b4 be
       -0.4684047 -1.1935338 -0.9218684 -0.35293198
0000f0 00 ba d7 bf 0a 97 d7 be e0 41 ce bf 12 46 8e 3e
       -1.6853638 -0.4210742 -1.6113853 0.27787834
000100 12 e1 15 3f 50 97 0f 3e d8 5e d7 bc ec ac d4 3e
       0.58546555 0.14022565 -0.026290342 0.4153818
000110 f0 04 f0 bc 80 75 13 3e 04 07 8c 3f a9 49 ec 3f
       -0.02929923 0.14400291 1.0939641 1.8459979
000120 27 cb 61 bf 24 40 0d c0 12 2b b2 3e 19 df 24 bf
       -0.8820061 -2.2070398 0.34798485 -0.6440292
000130 6c 42 23 3f 34 2f e5 be 09 83 f5 bf 85 35 4c 3f
       0.63773227 -0.44762576 -1.9180614 0.79769164
000140 eb a1 fd be c9 21 13 3f 0c f8 d8 3f 6e 2e 91 bf
       -0.49537596 0.5747343 1.6950698 -1.1342294
000150 20 7e c9 be 30 9e 1b 3f ff d7 44 bf c6 26 9f bf
       -0.39354038 0.6078825 -0.76892084 -1.2433708
000160 cb b8 bf be 54 78 a8 bf 28 04 1d 3f 1c 3e a9 bd
       -0.37445673 -1.3161721 0.61334467 -0.082637995
000170 72 cc a4 bf bc 3d 86 3f 26 04 3b 3f 78 0b d7 be
       -1.2874892 1.048759 0.73053205 -0.42000937

blaze_face_tf/double_block__v2/conv2d_29/conv2d_30/BiasAdd;blaze_face_tf/double_block__v2/conv2d_29/conv2d_30/Conv2D;blaze_face_tf/double_block__v2/conv2d_29/conv2d_30/BiasAdd/ReadVariableOp/resource f4 [96]
000000 4c 5a 8c be a0 2c 04 3c be 24 bd bd d5 bd 79 be
       -0.2741264 0.00806728 -0.09235524 -0.24388821
000010 06 d9 18 3d 92 38 d8 3b 90 86 0d be 83 5f 18 3d
       0.037316345 0.0065985406 -0.13820863 0.037200462
000020 ea ab 5e be 77 ee 3d bf 92 7a 44 be 2b 4e fe be
       -0.21745268 -0.74191993 -0.19187382 -0.49669012
000030 ec 59 93 be cd ab 13 bf b5 b7 03 bf fc 7f 4d bc
       -0.28779542 -0.5768402 -0.5145219 -0.012542721
000040 9a c5 01 3d 83 ca ee be e1 e5 85 bd e4 eb 79 bd
       0.03168259 -0.4663888 -0.065379865 -0.06101598
000050 38 ec 07 be 1f fe 5a bd b8 e6 13 3e 57 f6 ac 3c
       -0.13273704 -0.053465005 0.14443481 0.021113558
000060 5e 9e 97 3d 65 58 b8 be cc 57 1e bf 31 5f db 3c
       0.07403253 -0.3600494 -0.6185272 0.02677879
000070 cb 80 90 be 0a b2 a8 bd d7 bf 26 bc a5 0e b6 be
       -0.2822326 -0.08237083 -0.010177574 -0.35558048
000080 1e d9 26 3e 93 18 3c bd 68 04 db ba 68 6e 08 bf
       0.16293761 -0.045921873 -0.0016709687 -0.53293467
000090 42 f1 40 bf 62 a1 96 be 89 29 2e be 04 e8 ed bd
       -0.7536813 -0.2942 -0.17008032 -0.11616519
0000a0 bf 5a a5 bd dd de 0e bf ae 27 2e be 22 03 49 bf
       -0.08073949 -0.5580881 -0.17007324 -0.78520405
0000b0 f3 2d 84 bd e8 97 0b 3d 17 20 c8 be b1 36 90 be
       -0.064540766 0.034080416 -0.39086983 -0.28166726
0000c0 90 b3 2a be 90 e8 f7 bd 69 8b 16 bf 74 4a fd be
       -0.1667006 -0.12104905 -0.58806473 -0.49470866
0000d0 8d 8a dc be 8d 42 3d be 38 e9 3f be 12 d3 88 3d
       -0.43074456 -0.18482418 -0.1874131 0.066808835
0000e0 75 53 12 bf 5c 66 56 bd 07 77 35 be 0a 2c 24 3e
       -0.57158595 -0.05234371 -0.17721187 0.16032425
0000f0 a6 79 f1 be 04 4f 8f be e1 b2 b0 be 0e 3f 02 3e
       -0.47163123 -0.27989972 -0.34511474 0.12719366
000100 98 a4 80 bc 62 e2 88 be f7 05 eb 3d f2 6c 4a be
       -0.015703484 -0.26735216 0.11475747 -0.19768122
000110 f0 8a 16 be ec d7 41 bf fe 52 2b 3e 0a e8 89 be
       -0.14701438 -0.75720096 0.16730878 -0.26934844
000120 fa 13 18 be ed 35 19 bd 83 9c 25 bd 45 af c9 be
       -0.1485137 -0.037404943 -0.040432464 -0.39391533
000130 09 d2 22 3e 1c df 59 bf 81 25 73 bf 9f 38 a3 be
       0.15900435 -0.8510606 -0.949791 -0.31879136
000140 57 e1 d6 be e2 fa be be 32 21 34 be cd 26 01 bf
       -0.41968796 -0.37300783 -0.17590788 -0.5044983
000150 80 fd dc be 0d 5d 94 3d 29 a7 01 bf 99 4a 0c bf
       -0.43162155 0.072443105 -0.5064569 -0.54801327
000160 e5 a3 15 bd f2 b0 07 bc 4c 92 54 3e 88 a6 73 be
       -0.036533255 -0.008281933 0.20758933 -0.23793995
000170 9c 76 cd be 62 b5 8d be cc aa 27 bd e1 1b 1d bf
       -0.40129554 -0.27677447 -0.04093437 -0.61370665

blaze_face_tf/double_block__v2/conv2d_28/depthwise_conv2d_8/BiasAdd;blaze_face_tf/conv2d__relu/conv2d_4/conv2d_5/Conv2D;blaze_face_tf/double_block__v2/conv2d_28/depthwise_conv2d_8/depthwise;blaze_face_tf/double_block__v2/conv2d_28/depthwise_conv2d_8/BiasAdd/ReadVariableOp/resource f4 [24]
000000 9a 2d 39 bf 36 b8 08 3f bf 44 06 3e e2 29 bc be
       -0.7233521 0.53406084 0.13112162 -0.36750704
000010 0e 3b 19 be cc 5d b9 3d 18 a4 7a 3e fc ea 34 3f
       -0.14963934 0.090510935 0.2447666 0.7067106
000020 ee 13 2b bf 1f 93 94 be 29 32 4a 3f 88 ef a0 bf
       -0.66827285 -0.29018494 0.7898279 -1.2573099
000030 ae d8 e7 3e 14 a1 49 bd 5e 54 af be a3 5b 04 40
       0.452825 -0.04922588 -0.34244055 2.068093
000040 87 f1 c0 bf e1 ad 27 3f 9b fc 58 3f 18 d4 74 bf
       -1.5073708 0.65499693 0.84760445 -0.9563613
000050 be 27 27 3f 9d 07 3f bf 92 21 c5 bd 7a 9d a3 bf
       0.65295017 -0.7462099 -0.09625544 -1.2782433

blaze_face_tf/double_block__v2/conv2d_26/conv2d_27/BiasAdd;blaze_face_tf/conv2d__relu/conv2d_4/conv2d_5/Conv2D;blaze_face_tf/double_block__v2/conv2d_26/conv2d_27/Conv2D;blaze_face_tf/double_block__v2/conv2d_26/conv2d_27/BiasAdd/ReadVariableOp/resource f4 [24]
000000 af cf 3f be 28 0e a1 3e ef 7b 10 bf d1 6f bb be
       -0.18731569 0.31456113 -0.5643911 -0.36608747
000010 23 a5 11 be fb a3 3a 3e de 16 35 3d a7 5a 28 3d
       -0.14223151 0.18226616 0.04421126 0.041102078
000020 30 a8 ec bd 59 a5 ec 3d 05 e3 17 3f 7f 29 c7 3d
       -0.11555517 0.11554975 0.5933078 0.097247116
000030 28 ae 86 be a9 7a 13 3f 9f e1 50 3e a3 05 06 3f
       -0.26304746 0.5760904 0.20398568 0.5235235
000040 07 9c 05 3f d0 59 36 be e0 8b e7 3e 92 c7 f8 3e
       0.52191204 -0.17807698 0.45223904 0.4858976
000050 98 30 1b be 8f b1 bb be 45 1a 99 3d 38 bf 45 bd
       -0.15155256 -0.36658904 0.07475714 -0.048278064

blaze_face_tf/double_block__v2/conv2d_25/depthwise_conv2d_7/BiasAdd;blaze_face_tf/single_block__v1/conv2d_15/conv2d_16/Conv2D;blaze_face_tf/double_block__v2/conv2d_25/depthwise_conv2d_7/depthwise;blaze_face_tf/double_block__v2/conv2d_25/depthwise_conv2d_7/BiasAdd/ReadVariableOp/resource f4 [48]
000000 30 0d 49 bf ae 2b 52 bf 92 36 8b 3f e8 58 22 bf
       -0.7853575 -0.820979 1.0876029 -0.6341691
000010 12 7a 89 3f 3d 02 05 40 b7 05 ca bf b8 9a 95 3e
       1.0740378 2.0782616 -1.5782994 0.29219604
000020 3a d6 8e 3f 92 10 fb 3f e1 35 ec be 20 62 78 bf
       1.1159127 1.9614432 -0.46134856 -0.97024727
000030 74 49 0c 3f 1f 0c a4 be 50 d7 9c be 7a 63 46 bf
       0.5479958 -0.32040498 -0.3063302 -0.7749554
000040 8d 6e 18 bf 4c f6 62 bf 47 18 b0 bd 56 60 09 bf
       -0.5954369 -0.8865707 -0.085983805 -0.5366262
000050 60 67 43 3f 93 8c 55 3e e6 a8 8d 3f 8e 49 a1 3f
       0.7632961 0.20854406 1.1067169 1.2600572
000060 f8 c2 d7 3e d3 6e 49 3f fd 7b 93 bd 5b 3f e3 bf
       0.42140937 0.7868473 -0.07201383 -1.775371
000070 8d 4b db 3c 27 f0 81 bf 0e f7 31 3f aa ef 0c 3f
       0.026769424 -1.0151414 0.695176 0.550532
000080 96 f1 7f 3e 01 1a 95 3e 2c c1 84 bf 35 74 87 3f
       0.24994501 0.29121402 -1.0371451 1.0582339
000090 14 e8 55 bf f8 4a 94 3e b6 27 00 40 05 a2 31 c0
       -0.8355725 0.28963447 2.0024238 -2.775514
0000a0 e6 0f 18 bf bd 61 36 3e f4 47 fb bd a9 fc 84 3f
       -0.5939926 0.17810722 -0.12269583 1.0389606
0000b0 54 19 6e bf 6e 55 1d 3f 77 20 13 3f 54 91 b9 bf
       -0.930074 0.6145848 0.5747141 -1.4497476

blaze_face_tf/single_block__v0_3/conv2d_21/conv2d_22/BiasAdd;blaze_face_tf/single_block__v1/conv2d_15/conv2d_16/Conv2D;blaze_face_tf/single_block__v0_3/conv2d_21/conv2d_22/Conv2D;blaze_face_tf/single_block__v0_3/conv2d_21/conv2d_22/BiasAdd/ReadVariableOp/resource f4 [48]
000000 a4 e3 1d bf c0 f3 9b bd 10 b3 b7 be 1e 1d 84 3e
       -0.6167548 -0.07614851 -0.358788 0.25803465
000010 f3 80 72 be 18 ca cf 3e 24 7b 6d be 23 2e 94 3e
       -0.23682003 0.40583873 -0.23191506 0.2894145
000020 62 0d 16 bf d9 5b 08 bf 13 9a 98 3e 04 f4 e2 be
       -0.5861417 -0.5326515 0.2980505 -0.44326794
000030 ae 24 b2 be 02 32 2c 3e 22 d0 a4 be 01 73 9d be
       -0.3479361 0.16815951 -0.32190043 -0.30751804
000040 15 59 13 bf be 1a 0d bf bd 33 4c bf c6 af a9 bd
       -0.57557803 -0.5511893 -0.79766446 -0.08285479
000050 84 cf bb bc 7d 2b 22 bf 3a 09 7b bf 63 06 ec be
       -0.0229261 -0.6334761 -0.98060954 -0.46098623
000060 32 b7 1f 3e f9 e1 a3 be 72 c0 a9 3f ee f0 0d bd
       0.15597227 -0.3200834 1.3261855 -0.034653597
000070 b7 41 85 be 00 21 3c 3e 23 68 40 3e 6a 43 43 bf
       -0.260267 0.18371964 0.18789725 -0.7627474
000080 2a d6 3f bf 58 55 4d 3e 77 8f 37 be 15 83 6f 3e
       -0.74936163 0.20052087 -0.17925821 0.23389848
000090 fb 33 19 3e 4a 39 8a bf 2b d9 4c 3e 98 fa 1f 3f
       0.14961235 -1.0798733 0.20004718 0.6249175
0000a0 79 90 78 bf a8 fe 02 3e 86 e9 05 3d 8b 5f 47 bf
       -0.9709545 0.12792456 0.03269341 -0.7788016
0000b0 36 f0 b2 be f3 b5 7d be 71 62 5f bf a4 21 0e be
       -0.3494889 -0.2477644 -0.87259585 -0.1388002

blaze_face_tf/single_block__v0_3/conv2d_20/depthwise_conv2d_6/BiasAdd;blaze_face_tf/single_block__v1/conv2d_15/conv2d_16/Conv2D;blaze_face_tf/single_block__v0_3/conv2d_20/depthwise_conv2d_6/depthwise;blaze_face_tf/single_block__v0_3/conv2d_20/depthwise_conv2d_6/BiasAdd/ReadVariableOp/resource f4 [48]
000000 7b 1d 1a 3f be 44 0b bf 87 5b a4 bd 90 51 05 3f
       0.60201234 -0.5440177 -0.0802527 0.5207758
000010 61 42 07 3f d1 ea 6d bf 60 4c 0a bf f2 36 7f 3f
       0.5283566 -0.92936426 -0.5402279 0.99693215
000020 94 56 08 3f 09 29 93 bf 11 47 db 3e d9 78 b9 3f
       0.5325711 -1.1496898 0.42827657 1.4490005
000030 6a 8f 05 3f 7c 17 26 bd ce cc 16 be 80 ef 1f be
       0.5217196 -0.04054974 -0.14726564 -0.15618706
000040 65 93 16 bf 88 29 cb 3e a6 b5 95 3f ac aa 51 be
       -0.58818656 0.39680123 1.169606 -0.20475262
000050 8b 80 ab 3f b2 6b 27 3f 58 7a aa bf 56 de 68 3d
       1.3398603 0.65398705 -1.3318586 0.05685266
000060 a3 2a 2a bd 7a 09 38 bf 40 c4 ac 3e 6b 79 3e bf
       -0.041544568 -0.7188946 0.33743477 -0.7440402
000070 60 7f 25 be 75 89 fb 3e ba 4a 00 bf 59 55 16 bf
       -0.16161871 0.4912831 -0.50114024 -0.5872398
000080 56 fe e2 3e 80 b7 4d bf bf a7 6f be fb 9a ba 3f
       0.44334668 -0.80358124 -0.23403834 1.4578546
000090 9f 56 9f bf 17 6e 13 3e 3d 66 1c be 17 68 41 3e
       -1.244831 0.14397465 -0.15273376 0.18887363
0000a0 d2 85 b9 3c 98 c5 c5 be ed f5 c8 be ee 69 35 3f
       0.022646818 -0.38627315 -0.39250126 0.7086476
0000b0 9b 15 3c 3d c4 82 73 3f 2d b8 fc 3d c8 af 2c bf
       0.045919042 0.9512141 0.12339816 -0.6745572

blaze_face_tf/single_block__v0_2/conv2d_18/conv2d_19/BiasAdd;blaze_face_tf/single_block__v1/conv2d_15/conv2d_16/Conv2D;blaze_face_tf/single_block__v0_2/conv2d_18/conv2d_19/Conv2D;blaze_face_tf/single_block__v0_2/conv2d_18/conv2d_19/BiasAdd/ReadVariableOp/resource f4 [48]
000000 ff f9 50 be 6b 56 2e bf f1 28 42 be b4 cb 18 3e
       -0.20407866 -0.68100613 -0.1896093 0.14921457
000010 89 93 51 3e f2 44 70 be aa 59 bd be a4 ae 70 bf
       0.20466436 -0.234638 -0.3698247 -0.9401648
000020 7e be 67 be 2c 14 c7 3e 65 10 fe be 4c f4 30 be
       -0.22631261 0.38882577 -0.49621883 -0.17280692
000030 bc f6 11 bf 7e 89 fb bc 85 d4 6f be 6f d1 10 bf
       -0.5701711 -0.03070521 -0.23420914 -0.5656957
000040 99 d3 63 bf ea f8 08 3d 41 cd 05 be 88 d4 bb 3e
       -0.8899475 0.033440508 -0.1306658 0.36685586
000050 56 81 35 bf 22 8a 80 be 32 6c 0a bf 98 24 95 3e
       -0.70900476 -0.25105387 -0.5407134 0.2912948
000060 31 fe 04 bf 46 b6 20 be 66 8e 32 3d c1 60 83 be
       -0.51950365 -0.15694532 0.043592833 -0.25659755
000070 45 25 43 3e cf 3a 8f be cb 9f 4e bf bf 11 28 be
       0.19057186 -0.27974555 -0.80712575 -0.1641302
000080 58 1a 99 be 7f a6 38 bf 47 8e 0e 3d 5d 81 fa 3d
       -0.2990291 -0.7212905 0.034803655 0.12231705
000090 93 17 e5 3d 4f c0 9c bf 80 e7 20 3a c8 32 4c 3f
       0.11186137 -1.2246188 0.0006138012 0.79764986
0000a0 e4 24 16 3f e5 dd b9 bd 67 2d a8 3d 1e 5b bd 3d
       0.5865004 -0.09075526 0.08211785 0.09245895
0000b0 9f 3d 02 3e 25 93 40 bf da 60 99 3e 2a 0c ca bd
       0.12718819 -0.75224525 0.29956704 -0.09865601

blaze_face_tf/single_block__v0_2/conv2d_17/depthwise_conv2d_5/BiasAdd;blaze_face_tf/single_block__v1/conv2d_15/conv2d_16/Conv2D;blaze_face_tf/single_block__v0_2/conv2d_17/depthwise_conv2d_5/depthwise;blaze_face_tf/single_block__v0_2/conv2d_17/depthwise_conv2d_5/BiasAdd/ReadVariableOp/resource f4 [48]
000000 54 ad 49 bf b8 a5 a3 3e 62 65 9d 3f 9a c8 c6 bc
       -0.787801 0.3196237 1.2296565 -0.024265576
000010 9f 1b 02 3d 5c d2 45 3d 38 32 82 3e f2 2b 30 3d
       0.031764623 0.048296317 0.2542894 0.04301066
000020 9c 3d 69 3f a2 83 10 bf 77 af f7 3e 05 7a 74 3f
       0.91109633 -0.56450856 0.48376057 0.9549869
000030 00 bb 82 bd 35 21 c5 bf 7d 2d 3f 3f 2a b4 b2 3e
       -0.06383324 -1.5400759 0.74678785 0.3490308
000040 11 47 2b be 14 c6 b0 3d 6a 24 d0 3f 49 57 1b bf
       -0.16726328 0.086315304 1.6261113 -0.6068006
000050 df bc f1 3d e6 35 d2 be 93 79 d6 3f 08 49 b6 be
       0.118036024 -0.41056746 1.6755852 -0.35602593
000060 fe 2a 6c 3f 64 89 6e bf 58 1c 15 be dd e9 3a bf
       0.922531 -0.9317839 -0.14561594 -0.730131
000070 5e 38 05 bf 58 e1 1f 3f f8 bf 49 bd b3 bc eb be
       -0.52039135 0.6245322 -0.04925534 -0.46042404
000080 bb 2a b2 3f 31 77 34 bf e7 19 2e be aa 31 ed bf
       1.391929 -0.7049437 -0.17002068 -1.8530781
000090 4f 71 41 3e 56 3b 4b bf 6a 04 83 be 08 61 0c 3e
       0.1889088 -0.79387414 -0.25589305 0.1370889
0000a0 40 a4 a7 bf ee 07 f7 3f 39 87 94 bf 58 af f6 be
       -1.3097 1.9299295 -1.1603767 -0.48180652
0000b0 a2 09 83 3f f9 e2 cd be 1f c4 88 3d 0b e8 b4 3e
       1.0237315 -0.4021223 0.06678032 0.35333285

blaze_face_tf/single_block__v1/conv2d_12/conv2d_13/BiasAdd;blaze_face_tf/single_block__v1/conv2d_15/conv2d_16/Conv2D;blaze_face_tf/single_block__v1/conv2d_12/conv2d_13/Conv2D;blaze_face_tf/single_block__v1/conv2d_12/conv2d_13/BiasAdd/ReadVariableOp/resource f4 [48]
000000 60 87 59 40 b6 c1 35 bf 1f a5 02 40 1f 18 a3 bf
       3.3988876 -0.70998704 2.0413282 -1.2741736
000010 a6 ae 8f 3f 48 1f d0 3e 96 81 27 40 ce 98 87 bf
       1.1225173 0.40648866 2.6172843 -1.0593507
000020 76 b4 a4 be e0 43 4c 3e dd ea ad 3f b9 b3 7a 40
       -0.3216893 0.19947767 1.35873 3.9172194
000030 d6 22 c2 3f fa 30 62 3f be 3f 2b 3f 9d 6a 5f 40
       1.5166881 0.8835598 0.6689414 3.4908822
000040 7e b2 43 bf ce 76 4d 3f d1 40 b1 be cb 1a 05 c0
       -0.7644423 0.80259407 -0.34619763 -2.0797603
000050 26 25 08 3f 4d 82 2d bf b2 b5 54 3e 30 ec 3b bf
       0.53181684 -0.6777695 0.20772436 -0.7340727
000060 cd 66 d3 3f c8 da 40 bf 60 c6 9d bf 68 1f 3e bf
       1.6515747 -0.75333834 -1.2326164 -0.7426667
000070 0a 9a 95 bf fa e4 b3 3f 47 9c 68 40 e6 7f eb be
       -1.1687634 1.4054253 3.6345384 -0.45996016
000080 ac ed 9b 3f 13 60 0a 40 ee d8 b6 bf 91 3c 6c 40
       1.2181907 2.162114 -1.4284952 3.6911967
000090 4a b1 5a 3f 36 e5 59 3f 95 5d 1b 40 26 9b 32 bf
       0.8542677 0.85115373 2.4275868 -0.6976799
0000a0 33 5a 7b bf 8d a8 17 40 1b e2 04 bf f8 2a 38 3f
       -0.9818451 2.3696625 -0.5190751 0.71940565
0000b0 fc 51 bf bf 51 7d 77 40 f0 ac 98 bf 7e 76 c5 bf
       -1.4946895 3.8670237 -1.1927776 -1.5426786

blaze_face_tf/single_block__v1/conv2d_15/conv2d_16/BiasAdd;blaze_face_tf/single_block__v1/conv2d_15/conv2d_16/Conv2D;blaze_face_tf/single_block__v1/conv2d_15/conv2d_16/BiasAdd/ReadVariableOp/resource f4 [48]
000000 68 99 74 3e bd 49 2e be d8 1c fb ba 59 67 a0 3e
       0.23886645 -0.17020316 -0.0019158376 0.31328848
000010 b6 e3 38 3e d7 3f 16 3d ca c5 ed 3e 39 0f c5 be
       0.18055615 0.036681976 0.46439964 -0.38488176
000020 08 da 47 3e 6a bc ee 3e ba 05 34 bf eb 31 f4 be
       0.19516766 0.46628124 -0.7032124 -0.47694334
000030 9f 64 b2 be 76 e3 84 bd 5a 5f 2d 3f 2a d2 5f 3e
       -0.34842393 -0.06488697 0.6772362 0.21857515
000040 40 a6 01 be 10 02 3f 3c a8 bf 8e 3c 80 3d 11 3b
       -0.12661076 0.011658207 0.017425373 0.00221619
000050 b4 ca 95 3c d2 eb d5 3e 50 30 b6 bd d8 27 f2 bc
       0.018285133 0.4178148 -0.08895934 -0.029560015
000060 7b 07 be be 37 9f 13 3f 66 3a ff be ed 5b a9 3e
       -0.37115082 0.5766482 -0.49849242 0.33077946
000070 d6 c1 ff be 29 78 b2 3e b4 0f 27 3d c1 da 1b 3f
       -0.49952573 0.348573 0.04078646 0.60880667
000080 c1 32 ef 3e a3 d6 9c be c6 7d c7 3e e5 3f 16 3d
       0.4671841 -0.30632505 0.38963145 0.03668203
000090 d9 3b 16 3f ce d3 b5 be 02 3b 60 be 5b cf 53 3e
       0.5868507 -0.35513157 -0.2189751 0.20684569
0000a0 e4 b5 64 bc 07 7a ad bd 88 fd 38 bf 2a 52 06 3f
       -0.013959382 -0.084705405 -0.7226186 0.5246912
0000b0 df 4f 08 3f bc f8 70 bd 58 b9 a8 bc 04 5a ee 3e
       0.53246874 -0.05883096 -0.020596191 0.4655305

blaze_face_tf/single_block__v1/conv2d_14/depthwise_conv2d_4/BiasAdd;blaze_face_tf/conv2d__relu/conv2d_4/conv2d_5/Conv2D;blaze_face_tf/single_block__v1/conv2d_14/depthwise_conv2d_4/depthwise;blaze_face_tf/single_block__v1/conv2d_14/depthwise_conv2d_4/BiasAdd/ReadVariableOp/resource f4 [24]
000000 4e 90 e7 3f 1c 3e 9a 3f 8a e1 14 be df dd 40 be
       1.8090913 1.2050204 -0.14539161 -0.18834637
000010 b6 1f 71 3f 90 b2 d3 3c 25 22 a0 3f b0 bc 80 3f
       0.9418901 0.025841981 1.251042 1.0057583
000020 eb c6 8d bf 1c 20 88 3e 15 d8 db bf 24 d4 48 bd
       -1.107633 0.26586998 -1.7175318 -0.049030438
000030 ce 0a 8e 3f d3 f1 bd 3f 05 11 87 bf 5f 68 97 bf
       1.1097047 1.4839424 -1.0552069 -1.1828727
000040 ef 7b 2f 3f 99 9a 6b 3f 7c 41 da 3e a2 5e 06 bf
       0.6854848 0.9203277 0.42628086 -0.5248815
000050 3e 35 ae be f7 99 d3 3e ff bb 23 c0 fd ae 77 be
       -0.34024996 0.41328403 -2.5583494 -0.24187846

blaze_face_tf/single_block__v0_1/conv2d_10/conv2d_11/BiasAdd;blaze_face_tf/conv2d__relu/conv2d_4/conv2d_5/Conv2D;blaze_face_tf/single_block__v0_1/conv2d_10/conv2d_11/Conv2D;blaze_face_tf/single_block__v0_1/conv2d_10/conv2d_11/BiasAdd/ReadVariableOp/resource f4 [24]
000000 93 e9 36 3f 73 44 52 bf 39 a3 05 bf 33 c3 45 bf
       0.71450156 -0.82135695 -0.52202183 -0.77250975
000010 9c 58 84 bf 48 cf 14 bf c2 3d 2e bf 1e 17 53 bf
       -1.0339541 -0.58128786 -0.68062985 -0.8245715
000020 78 29 a3 bd 44 84 55 bf ea 8e c6 bd d6 c5 26 bf
       -0.07966894 -0.83404946 -0.096952274 -0.65145624
000030 19 c9 19 bf 74 67 11 bf 16 79 4e 3f 83 69 9e be
       -0.60072476 -0.5679848 0.8065351 -0.30939874
000040 ea fd cc be 88 fa c9 3e c7 77 17 be c4 10 74 bf
       -0.4003747 0.39448953 -0.14791785 -0.9533808
000050 e7 a6 05 3f 53 b8 1c bf 82 d7 1d 3f 86 d4 02 bf
       0.522078 -0.61218756 0.61656964 -0.51105535

blaze_face_tf/single_block__v0_1/conv2d_9/depthwise_conv2d_3/BiasAdd;blaze_face_tf/conv2d__relu/conv2d_4/conv2d_5/Conv2D;blaze_face_tf/single_block__v0_1/conv2d_9/depthwise_conv2d_3/depthwise;blaze_face_tf/single_block__v0_1/conv2d_9/depthwise_conv2d_3/BiasAdd/ReadVariableOp/resource f4 [24]
000000 50 9b 04 3d 57 0b c4 3d ab dc 4d be df 15 27 3f
       0.03237468 0.095724754 -0.2010371 0.6526775
000010 74 cc 7c 3f b4 e8 72 3f 00 35 1e 3f e9 f8 ee 3e
       0.9874947 0.94886327 0.6179962 0.46674278
000020 88 25 18 be fe 81 85 bf 92 03 00 3f 4b 1c 24 3f
       -0.14858067 -1.0430295 0.5000545 0.6410567
000030 1c 02 a7 3e 03 63 84 3e 60 bb 94 be 61 9f 1a bf
       0.32618797 0.2585679 -0.29049206 -0.6039944
000040 00 d9 1e 3a ad 43 50 be 06 df f0 bd cf b1 84 be
       0.0006059557 -0.20338316 -0.11761288 -0.25916907
000050 84 92 d2 be 90 63 76 be dc f1 9f 3f 86 c1 10 bd
       -0.41127408 -0.24061418 1.2495685 -0.03534081
